checkpoint.pth (torch_old, 227360 bytes, 12 tensors)

conv1.weight f4 [6, 1, 3, 3]
0.7937614 0.39939135 -0.70198745 0.17449257 0.4206871 -0.7656116 0.31865677 0.00434088
-0.63293535 -0.14470793 -0.11499378 -0.13809207 0.32206744 0.36246538 -0.05006561 -0.283681
0.31813535 -0.12754026 -0.17584482 0.21984015 -0.47050253 0.08343759 -0.42538425 0.02435156
0.08503142 0.056825705 0.35587916 0.18462482 0.72684914 0.037798513 0.2906037 0.09837191
0.15366492 -0.2982251 0.44611675 -0.20562266 -0.08118301 -0.2011168 -0.26289868 -0.15010111
-0.33377063 -0.5347285 0.008364457 -0.35029095 0.0137476595 -0.0007491181 0.07996777 0.1039619
0.4874843 0.45479563 0.02334003 0.21267027 -0.16335234 -0.37303042
00000000: f233 4b3f 067d cc3e 73b5 33bf 2eae 323e
00000010: 4d64 d73e 1fff 43bf fb26 a33e f13d 8e3b
00000020: 0d08 22bf 512e 14be dc81 ebbd 0268 0dbe
00000030: 06e6 a43e 1095 b93e 9911 4dbd a33e 91be
00000040: a3e2 a23e ea99 02be aa10 34be c71d 613e
00000050: b5e5 f0be 54e1 aa3d f7cb d9be ec7c c73c
00000060: f424 ae3d 12c2 683d cb35 b63e 4a0e 3d3e
00000070: c912 3a3f 9dd2 1a3d 02ca 943e 3677 c93d
00000080: 565a 1d3e f6b0 98be 6a69 e43e bf8e 52be
00000090: 4743 a6bd 90f1 4dbe a89a 86be 1bb4 19be
000000a0: fce3 aabe f8e3 08bf 130b 093c 5659 b3be
000000b0: dd3d 613c 7760 44ba 24c6 a33d fae9 d43d
000000c0: 8b97 f93e f9da e83e 9733 bf3c 3cc6 593e
000000d0: d645 27be d8fd bebe

conv1.bias f4 [6]
0.0058459667 -0.20541863 0.43420136 -0.12514988 -0.47820696 0.7864837
00000000: 868f bf3b 4359 52be a44f de3e 4a27 00be
00000010: 8bd7 f4be ff56 493f

conv2.weight f4 [6, 6, 3, 3]
-0.06802915 -0.0168279 0.10231921 -0.01767909 0.2043948 0.29363492 0.03378413 0.108220026
0.34519124 -0.04686752 -0.10204239 0.0823402 -0.012756003 0.069232374 -0.034663837 -0.056145974
0.09219714 -0.051301967 -0.12151845 -0.1311763 -0.08050961 -0.058253273 -0.026203346 -0.15261796
-0.13188599 -0.11892028 -0.057703126 0.24034537 0.04316549 -0.14585263 0.23569018 0.13291669
-0.1856554 0.1675636 0.010030957 -0.28665218 -0.05345494 0.10392537 -0.057359576 0.058458008
0.093733564 0.064255044 -0.017953342 -0.010710752 -0.04802472 0.19547255 0.07980188 -0.035779707
0.0595994 -0.097270414 -0.18364115 0.24252401 0.11385522 -0.24875636 -0.22994068 0.0020386938
0.14465883 -0.37215826 -0.110906854 0.30469126 -0.20463035 0.03387942 0.20120189 -0.11116228
0.124801375 -0.106299475 -0.078576855 0.047907434 -0.09055321 -0.12861393 -0.104466215 0.00038961458
-0.14753547 -0.04187915 -0.01721147 -0.1731037 -0.071505934 -0.009813906 -0.16795056 0.020927101
-0.10913255 0.13816303 0.2262251 -0.11725575 0.13373001 0.12888315 -0.043947175 0.047103245
0.08053259 -0.2083858 0.054174446 -0.0439928 -0.06610268 -0.11909356 -0.08217073 -0.08828366
0.0971729 -0.06892184 0.030898685 0.21777798 0.20489773 -0.04778297 0.26334727 0.22255832
-0.1859491 0.13082217 0.0627021 -0.17567144 -0.13121253 0.03595226 -0.09141844 0.013149652
-0.034644593 -0.10453994 -0.10928628 0.027618932 0.104273975 -0.0003080855 -0.03111782 0.09106921
0.079082645 0.06924739 0.0807762 -0.004411061 -0.09706611 0.028365921 -0.09486997 -0.10898752
0.069636576 -0.08859884 -0.010490702 0.11121533 0.023220198 -0.05449636 -0.13925232 0.003937732
0.03597583 -0.01455766 0.040648956 0.012281497 0.083054066 -0.13204448 -0.11799412 -0.10102237
-0.057945684 -0.04915603 0.042676512 -0.023893677 0.08623216 0.06869939 0.08995958 -0.112974346
-0.04605657 -0.1360471 0.078482345 -0.11977451 -0.071638495 0.009147797 -0.11430307 -0.064121075
0.094301954 -0.034407254 0.21900776 0.048877344 0.08293359 0.14264925 -0.071940646 -0.0021638745
0.047561567 -0.0166252 -0.15030399 -0.09684368 0.122264944 -0.020965286 0.085715756 -0.13183376
0.031599928 -0.09023475 0.12973082 -0.008251457 -0.0052623316 0.005607958 0.17422366 -0.060331244
0.1349496 -0.094605565 0.115308 -0.056521237 -0.07954773 0.020944344 -0.05546351 0.029425602
-0.08123174 -0.09653544 -0.049722012 -0.14886148 -0.06520003 -0.08617389 0.21566632 0.15963867
0.09000095 0.21262252 0.30248207 0.08725983 0.07895047 0.14842834 0.14932448 -0.1742132
0.03203476 -0.11660667 -0.1955576 -0.16493912 0.023979628 -0.13699338 -0.03824376 -0.0029315548
-0.19107012 -0.35911393 -0.24379754 -0.081494115 -0.3635467 -0.14974809 -0.043727443 -0.094914116
-0.09361795 -0.0989507 -0.0068618185 -0.08797236 0.08726025 -0.20752016 0.06653783 -0.03526231
0.021318309 0.15513201 0.081101574 0.16931856 0.08777109 -0.040150866 0.16874902 0.20164415
0.25293198 0.017691879 0.004921635 0.107705235 0.088672295 0.3088931 0.31499583 0.33896658
0.27141204 0.30406114 0.21102192 0.04008222 -0.15161613 -0.059961427 -0.10284359 -0.20079291
00000000: de52 8bbd aada 89bc bc8c d13d bdd3 90bc
00000010: df4c 513e 5157 963e 3a61 0a3d 76a2 dd3d
00000020: e8bc b03e 28f8 3fbd 9afb d0bd fba1 a83d
00000030: 8efe 50bc b4c9 8d3d abfb 0dbd 52f9 65bd
00000040: dbd1 bc3d 0322 52bd aade f8bd 1453 06be
00000050: 39e2 a4bd fc9a 6ebd 66a8 d6bc e247 1cbe
00000060: 1f0d 07be 7a8c f3bd 1d5a 6cbd 191d 763e
00000070: 4cce 303d 645a 15be c458 713e 501b 083e
00000080: 731c 3ebe cb95 2b3e e258 243c 13c4 92be
00000090: 91f3 5abd d3d6 d43d e0f1 6abd aa71 6f3d
000000a0: 62f7 bf3d 2698 833d e312 93bc 267c 2fbc
000000b0: 92b5 44bd f529 483e 2b6f a33d be8d 12bd
000000c0: 801e 743d b635 c7bd 6d0c 3cbe 3758 783e
000000d0: ed2c e93d fdb9 7ebe 9275 6bbe 9b9b 053b
000000e0: 7221 143e 878b bebe 2223 e3bd 7e00 9c3e
000000f0: 9e8a 51be 26c5 0a3d de07 4e3e 0da9 e3bd
00000100: dd97 ff3d 8ab3 d9bd e7ec a0bd 963a 443d
00000110: f673 b9bd 5fb3 03be 62f2 d5bd 2f45 cc39
00000120: 8a13 17be 7989 2bbd 12ff 8cbc 1942 31be
00000130: b471 92bd 81ca 20bc 3bfb 2bbe 506f ab3c
00000140: e380 dfbd 9c7a 0d3e 8da7 673e c823 f0bd
00000150: 85f0 083e f2f9 033e f401 34bd 55ef 403d
00000160: 45ee a43d 1663 55be 06e6 5d3d cb31 34bd
00000170: d860 87bd 53e7 f3bd 2149 a8bd 10ce b4bd
00000180: 9602 c73d e526 8dbd 3d1f fd3c 3101 5f3e
00000190: b6d0 513e 13b8 43bd 74d5 863e 54e6 633e
000001a0: 7169 3ebe 3ff6 053e f569 803d 37e3 33be
000001b0: 945c 06be ad42 133d 9739 bbbd a371 573c
000001c0: 7de7 0dbd 0919 d6bd 7cd1 dfbd 1941 e23c
000001d0: 988d d53d 8986 a1b9 ccea febc 7e82 ba3d
000001e0: 15f6 a13d 93d1 8d3d fe6d a53d a98a 90bb
000001f0: 99ca c6bd a65f e83c 304b c2bd d934 dfbd
00000200: 9f9d 8e3d 4f73 b5bd 32e1 2bbc ddc4 e33d
00000210: 4938 be3c 9337 5fbd 2998 0ebe 1708 813b
00000220: 645b 133d 4083 6ebc 857f 263d 5538 493c
00000230: 4018 aa3d ab36 07be e7a6 f1bd d1e4 cebd
00000240: 7458 6dbd d557 49bd 91cd 2e3d acbc c3bc
00000250: 7d9a b03d 44b2 8c3d ba3c b83d 185f e7bd
00000260: d0a5 3cbd ee4f 0bbe 5abb a03d 574c f5bd
00000270: 34b7 92bd a4e0 153c ba17 eabd e951 83bd
00000280: 6221 c13d 9fee 0cbd 9243 603e 9c33 483d
00000290: 16d9 a93d a512 123e 9e55 93bd cacf 0dbb
000002a0: ebcf 423d 9231 88bc 4ae9 19be fb55 c6bd
000002b0: 0b66 fa3d 64bf abbc be8b af3d 6eff 06be
000002c0: ed6e 013d ffcc b8bd 28d8 043e 1e31 07bc
000002d0: a36f acbb f6c2 b73b b067 323e e51d 77bd
000002e0: 3a30 0a3e 90c0 c1bd 9a26 ec3d d082 67bd
000002f0: ece9 a2bd 7993 ab3c b52d 63bd f60d f13c
00000300: d45c a6bd 5fb4 c5bd 4fa9 4bbd 256f 18be
00000310: 9887 85bd f07b b0bd a2d7 5c3e 5278 233e
00000320: 6b52 b83d b8b9 593e eede 9a3e 48b5 b23d
00000330: c9b0 a13d 99fd 173e 84e8 183e f264 32be
00000340: e136 033d 7acf eebd 4040 48be cde5 28be
00000350: ed70 c43c fe47 0cbe 7da5 1cbd 541f 40bb
00000360: e3a7 43be c8dd b7be 10a6 79be 63e6 a6bd
00000370: cb22 babe 9057 19be 8c1b 33bd 5562 c2bd
00000380: c5ba bfbd aaa6 cabd 1bd9 e0bb da2a b4bd
00000390: 80b5 b23d 2a80 54be fc44 883d 366f 10bd
000003a0: bca3 ae3c edda 1e3e 9518 a63d d861 2d3e
000003b0: 54c1 b33d 3c75 24bd 8bcc 2c3e ce7b 4e3e
000003c0: 4d80 813e 8fee 903c ab45 a13b 9094 dc3d
000003d0: d299 b53d 3d27 9e3e 2247 a13e 078d ad3e
000003e0: 85f6 8a3e e7ad 9b3e 2116 583e 412d 243d
000003f0: 4241 1bbe 1d9a 75bd a99f d2bd a89c 4dbe

conv2.bias f4 [6]
-0.1821298 0.03633922 -0.0031286334 -0.16465005 0.29484954 0.16084993
00000000: 3c80 3abe 6fd8 143d c209 4dbb 069a 28be
00000010: 85f6 963e d8b5 243e

conv3.weight f4 [16, 6, 3, 3]
0.1112479 -0.081923634 -0.056015976 -0.1803568 -0.1265439 -0.2438258 -0.039020028 0.028117629
0.03960873 -0.114296295 -0.17736672 -0.2667038 -0.22055866 -0.15736948 -0.12782545 -0.040919084
0.038404506 0.20370914 0.0949317 0.047982037 -0.10724781 -0.10824725 0.02201601 -0.019788386
0.0013377054 -0.0053371354 -0.022548934 0.20119682 0.26344013 0.047840863 0.06155248 0.13565093
0.0633181 0.028821182 -0.18726166 -0.10566186 -0.20232414 -0.5285533 -0.73512644 -0.23973332
-0.40020174 -0.16655411 0.4556467 0.49621215 0.68819356 0.233321 0.34480292 0.26826864
-0.02187861 0.07707929 0.13534218 -0.37837392 -0.4149215 -0.20530409 -0.23227908 -0.080775954
-0.11886948 -0.06862767 -0.2250162 -0.06985484 -0.1667587 -0.0023212796 -0.18918681 -0.015105126
0.09378016 0.29149756 -0.17965671 -0.24175054 -0.017224222 -0.17218691 -0.27689207 -0.28294426
0.11239272 -0.13044168 0.051463615 0.04018605 -0.050845366 -0.08732119 0.07746419 -0.019235022
0.072977476 0.06583397 0.022795051 0.10584415 0.1848821 0.20325086 -0.07525142 0.07996659
0.15371469 0.12792894 0.18832213 0.6925422 1.2194152 -0.5898712 -0.36304203 0.51675385
-0.408468 -0.91392815 -0.42113775 -0.25370374 -0.34225196 -0.40447217 0.085904405 -0.018978728
-0.21334243 0.072589785 0.20051707 0.037895266 0.11268104 -0.08786368 0.05825682 0.0023435082
-0.13543451 -0.13396761 0.09002576 0.00787082 -0.07533216 0.037805963 -0.096617945 -0.012186816
-0.053108193 -0.059247646 0.08700416 -0.035346653 -0.10463122 -0.15012538 -0.11416956 -0.10698703
-0.07478573 -0.06415611 0.11884508 0.020075692 -0.1332318 -0.0018066532 0.039978437 0.03361574
-0.09695667 -0.0021128426 -0.08937847 0.020155566 -0.13761881 0.081344455 0.019504428 -0.0008494055
0.015318709 -0.020401685 -0.18560821 0.076767065 -0.1574701 -0.17232276 -0.03819323 -0.05470355
-0.12843487 -0.063570276 -0.1701049 -0.06878555 -0.25826836 -0.18468687 -0.2099647 -0.18944453
-0.27145657 -0.2824577 -0.2277321 0.09136244 0.15975758 -0.067086756 -0.046423152 0.062661186
-0.081342466 0.14727646 0.18983947 0.061135657 0.12408443 0.072809935 -0.04687062 0.078432806
-0.12069181 -0.090830706 0.037526395 -0.041019462 0.13334128 -0.041187145 -0.097438425 0.13286714
0.011743493 0.113087945 -0.04711158 -0.043820743 0.09940138 0.119697966 -0.078397475 0.14641291
-0.07819933 -0.11757412 0.1630249 0.09341028 -0.07531261 0.09738776 0.23043796 0.27345672
-0.62544245 0.1591606 0.19775498 -0.45790067 0.4281001 0.06806385 -0.5934421 -0.37069976
-0.17973065 0.20503515 -0.36872703 -0.40925366 0.2751168 -0.16505268 -0.27564463 0.33991775
0.02885194 0.120285764 -0.023444036 -0.093587615 0.13502139 -0.056197405 -0.049097188 0.046507053
0.044133026 -0.008541536 0.014985297 -0.041430958 0.1093218 -0.053916376 -0.062982 0.00038520314
0.081613466 -0.19553788 0.11154591 0.09323786 -0.036360193 0.12871365 0.006005903 -0.10174343
-0.020498637 0.10149404 -0.015932519 -0.11696525 0.08427356 -0.10743524 -0.116511896 0.10489928
-0.04389117 -0.12584662 0.013347408 0.0076889424 0.15955605 -0.069113046 -0.2501583 0.13153502
00000000: f0d5 e33d 94c7 a7bd 0271 65bd 74af 38be
00000010: b994 01be 78ad 79be 77d3 1fbd f156 e63c
00000020: c33c 223d 2d14 eabd 9f9f 35be 678d 88be
00000030: 21da 61be 7725 21be ade4 02be c59a 27bd
00000040: 0b4e 1d3d 2199 503e 8d6b c23d d088 443d
00000050: bda4 dbbd bcb0 ddbd eb5a b43c 411b a2bc
00000060: f255 af3a 23e3 aebb 8bb8 b8bc 8a06 4e3e
00000070: a0e1 863e c8f4 433d 741e 7c3d 14e8 0a3e
00000080: ecac 813d 661a ec3c 85c1 3fbe 3f65 d8bd
00000090: 0f2e 4fbe 454f 07bf 3f31 3cbf a77c 75be
000000a0: 3ee7 ccbe 298d 2abe 864a e93e 850f fe3e
000000b0: 742d 303f b3eb 6e3e 028a b03e 825a 893e
000000c0: c53a b3bc bfdb 9d3d 2497 0a3e 3aba c1be
000000d0: 9770 d4be 3c3b 52be 91da 6dbe dd6d a5bd
000000e0: d871 f3bd aa8c 8cbd a66a 66be 0e10 8fbd
000000f0: cbc2 2abe 9c20 18bb 30ba 41be 7e7b 77bc
00000100: d00f c03d 2b3f 953e eef7 37be 748d 77be
00000110: d019 8dbc c451 30be ccc4 8dbe 12de 90be
00000120: 282e e63d 8192 05be 83cb 523d 219a 243d
00000130: 3b43 50bd 74d5 b2bd 8ca5 9e3d c492 9dbc
00000140: 3775 953d f6d3 863d b0bc ba3c d1c4 d83d
00000150: bc51 3d3e fe20 503e 6b1d 9abd 86c5 a33d
00000160: 6267 1d3e ceff 023e 84d7 403e 724a 313f
00000170: cc15 9c3f cd01 17bf a5e0 b9be fb49 043f
00000180: b822 d1be 32f7 69bf 5e9f d7be 75e5 81be
00000190: a63b afbe fa16 cfbe a6ee af3d 4779 9bbc
000001a0: 7076 5abe f4a9 943d 5954 4d3e 1138 1b3d
000001b0: 51c5 e63d e0f1 b3bd b49e 6e3d 8b95 193b
000001c0: 58af 0abe ce2e 09be 6d5f b83d 9df4 003c
000001d0: bf47 9abd 6dda 1a3d a1df c5bd 36ab 47bc
000001e0: fa87 59bd a9ad 72bd 3d2f b23d a7c7 10bd
000001f0: e548 d6bd 78ba 19be bbd1 e9bd 041c dbbd
00000200: 4329 99bd 4764 83bd 0d65 f33d c775 a43c
00000210: eb6d 08be 39cd ecba 6ec0 233d a8b0 093d
00000220: 3891 c6bd 9e77 0abb 0f0c b7bd 491d a53c
00000230: f2eb 0cbe ec97 a63d c0c7 9f3c a3aa 5eba
00000240: 53fb 7a3c 6f21 a7bc 1410 3ebe 0d38 9d3d
00000250: d83f 21be 6175 30be 8170 1cbd d410 60bd
00000260: 6e84 03be 2231 82bd fb2f 2ebe 70df 8cbd
00000270: c03b 84be 8e1e 3dbe fc00 57be bffd 41be
00000280: 5bfc 8abe 4c9e 90be 9b32 69be 3b1c bb3d
00000290: 7e97 233e c864 89bd 3426 3ebd 8254 803d
000002a0: e196 a6bd a4cf 163e 4765 423e 6269 7a3d
000002b0: fa1f fe3d 601d 953d 68fb 3fbd 61a1 a03d
000002c0: 452d f7bd 7305 babd 47b5 193d 0604 28bd
000002d0: 9e8a 083e dab3 28bd cc8d c7bd 530e 083e
000002e0: c867 403c a79a e73d 12f8 40bd 617d 33bd
000002f0: f392 cb3d 3524 f53d db8e a0bd 44ed 153e
00000300: f826 a0bd b3ca f0bd 00f0 263e e44d bf3d
00000310: 7f3d 9abd 3c73 c73d eef7 6b3e 8502 8c3e
00000320: ff1c 20bf fffa 223e 4880 4a3e f571 eabe
00000330: f02f db3e 0f65 8b3d d2eb 17bf 5ccc bdbe
00000340: 500b 38be bcf4 513e cac9 bcbe b289 d1be
00000350: 1cdc 8c3e 9203 29be 4b21 8dbe b309 ae3e
00000360: e75a ec3c 6258 f63d b50d c0bc ddaa bfbd
00000370: 0c43 0a3e 402f 66bd 221a 49bd 2e7e 3e3d
00000380: d5c4 343d ccf1 0bbc e484 753c 82b3 29bd
00000390: 1ce4 df3d 6bd7 5cbd b5fc 80bd 17f5 c939
000003a0: f624 a73d 153b 48be 2f72 e43d 7ef3 be3d
000003b0: 6dee 14bd 83cd 033e 2acd c43b dc5e d0bd
000003c0: c2ec a7bc 1bdc cf3d ea84 82bc 7a8b efbd
000003d0: 9e97 ac3d 0207 dcbd ca9d eebd 6fd5 d63d
000003e0: 3ac7 33bd f0dd 00be 16af 5a3c 86f3 fb3b
000003f0: a962 233e 248b 8dbd c014 80be 1eb1 063e

conv3.bias f4 [16]
-0.0075776987 0.06938907 0.035013247 -0.13923132 -0.072010696 0.012943139 -0.04297289 -0.05659648
-0.08707518 -0.104199745 -0.03816377 0.02799362 -0.16487193 0.0046959175 -0.13724099 -0.15216719
00000000: 584e f8bb db1b 8e3d 0d6a 0f3d a892 0ebe
00000010: 587a 93bd 760f 543c 5704 30bd b6d1 67bd
00000020: 7954 b2bd ad66 d5bd 9d51 1cbd e052 e53c
00000030: 30d4 28be 36e0 993b e788 0cbe b7d1 1bbe

fc1.weight f4 [120, 400]
-0.028404985 0.06370638 0.19175246 0.095043495 0.0008084714 0.013289394 0.08696427 0.1352162
0.11322038 0.023637211 -0.04856732 -0.09719398 0.04978179 0.06253819 0.016233716 -0.04651873
-0.087467015 -0.1362468 -0.06285429 0.023559097 -0.025356213 -0.13137312 -0.08241866 -0.07011336
-0.050555564 0.017142914 -0.08093616 0.02263305 0.0014896312 0.059378 -0.07672156 -0.18076542
0.019071471 0.018765291 -0.0036969627 -0.03829282 0.0049658283 0.05087142 -0.0068442337 -0.119976476
-0.069213696 0.09968926 0.15126239 0.071035765 -0.14842306 -0.03387743 -0.024004376 0.020290248
0.043135613 -0.0640163 0.009629056 -0.06627977 -0.0680315 -0.010403026 0.022104751 0.0053701145
-0.03835922 0.023236262 0.020417245 -0.020233305 -0.010166079 0.0017351577 -0.0062108203 0.04100215
0.023955895 -0.012387912 -0.022533763 -0.07836476 0.036017653 0.0068328613 0.037906565 0.009455935
-0.0802595 0.0075226733 0.03560635 0.014124106 -0.014030391 -0.007146697 0.00019036779 0.009642786
-0.010171892 -0.036876023 -0.03534816 0.052672885 0.027081547 0.07447093 0.08964085 -0.06976184
-0.063306876 0.010556782 0.109498285 0.08401045 -0.16568097 -0.17357545 -0.084758006 0.082289904
0.06543049 -0.14435369 -0.19277342 -0.054283306 0.015264617 -0.031393737 -0.0680471 -0.004415066
0.012759293 -0.035855822 -0.015616368 0.03770959 0.050706513 -0.023384495 -0.057033412 -0.0016408032
-0.06364398 0.0042781993 0.04157141 -0.0050966814 0.0098851975 -0.06732306 -0.09549588 -0.010169684
0.073661566 -0.016366946 -0.09485689 -0.140367 0.010284679 0.08312039 -0.040633623 -0.039663814
-0.030396678 -0.008502452 0.034067992 0.03512207 -0.015026731 0.06273603 0.033161093 0.029161863
0.045599267 -0.045970663 0.07730941 -0.00433047 0.11112272 0.08607471 -0.06607197 -0.07962429
0.029183619 0.1473958 0.0430309 -0.12745334 -0.12500706 -0.04592194 0.03626305 -0.04869341
0.020765852 -0.0042013577 0.02116022 -0.0056135138 -0.022914307 -0.039368656 0.030716993 0.04554621
-0.026687194 0.026096497 0.01439181 -0.043867916 -0.0029603373 0.012188949 0.016064515 -0.017144393
0.00067151285 0.045933288 0.0062583163 0.01096142 0.041446477 -0.030608645 -0.03989509 0.040533956
-0.014933778 0.0016894523 0.019905567 0.00821955 0.031993058 0.0043556914 0.034596685 0.026796944
0.013419584 -0.016537061 -0.02593847 0.002144953 0.021247797 -0.037325297 -0.004018656 -0.038522303
-0.025934147 0.011079638 -0.0036038621 0.036209643 0.039951738 0.050225593 0.025271643 0.03487398
0.0062639904 0.032072842 -0.012071687 -0.038400963 -0.014098729 0.051124994 0.029210722 0.026310466
0.011016859 0.006870935 0.049521647 -0.022192542 -0.030945694 -0.016120432 -0.012025234 -0.029125016
-0.0077692633 -0.035272658 -0.009053222 -0.017266335 0.04296266 -0.033375204 -0.049331047 -0.059588056
-0.035250954 0.03817384 0.008640305 -0.06422046 -0.076282695 -0.063547395 0.029770412 0.0014174419
0.04167859 0.027719848 -0.056684807 0.057378277 0.11013985 0.020730706 0.20986164 -0.07284511
0.012348927 0.060320754 -0.09906427 -0.005098619 -0.021195654 0.0075041843 -0.024192555 -0.18725973
-0.10961615 0.024305757 0.011754346 -0.046412468 -0.03379161 -0.00602975 -0.05459506 0.04705015
00000000: 92b1 e8bc 7e78 823d c25a 443e 2aa6 c23d
00000010: 99ef 533a c2bb 593c 531a b23d 1e76 0a3e
00000020: 16e0 e73d d3a2 c13c 87ee 46bd a30d c7bd
00000030: fde7 4b3d 0614 803d 92fc 843c 6d8a 3ebd
00000040: e821 b3bd 4884 0bbe c0b9 80bd 02ff c03c
00000050: d5b7 cfbc ad86 06be 1dcb a8bd 9897 8fbd
00000060: 5a13 4fbd 4c6f 8c3c dcc1 a5bd f268 b93c
00000070: bb3f c33a 5936 733d 3120 9dbd 921a 39be
00000080: c63b 9c3c abb9 993c be48 72bb efd8 1cbd
00000090: 63b8 a23b 8d5e 503d 9845 e0bb 3ab6 f5bd
000000a0: e9bf 8dbd e229 cc3d 87e4 1a3e 337b 913d
000000b0: 37fc 17be 0fc3 0abd d3a4 c4bc bc37 a63c
000000c0: f8ae 303d fa1a 83bd 30c3 1d3c b0bd 87bd
000000d0: 1954 8bbd 7471 2abc 0615 b53c c9f7 af3b
000000e0: 8f1e 1dbd f959 be3c 1142 a73c 51c0 a5bc
000000f0: a08f 26bc 3b6e e33a 2384 cbbb dff1 273d
00000100: 273f c43c abf6 4abc ba98 b8bc b47d a0bd
00000110: 3f87 133d 32e6 df3b ea43 1b3d 11ed 1a3c
00000120: 185f a4bd c280 f63b f7d7 113d cb68 673c
00000130: badf 65bc d72e eabb 779d 4739 c7fc 1d3c
00000140: 02a8 26bc 500b 17bd 3bc9 10bd 86bf 573d
00000150: 1fda dd3c 3784 983d 9f95 b73d 4cdf 8ebd
00000160: 09a7 81bd 5af6 2c3c a340 e03d ac0d ac3d
00000170: 46a8 29be c3bd 31be 9b95 adbd 9c87 a83d
00000180: 6c00 863d 74d1 13be 6566 45be 2c58 5ebd
00000190: 7218 7a3c b896 00bd 475c 8bbd 42ac 90bb
000001a0: 5b0c 513c 8edd 12bd cbdb 7fbc 5f75 1a3d
000001b0: a2b1 4f3d d790 bfbc de9b 69bd 3810 d7ba
000001c0: c657 82bd 2330 8c3b c846 2a3d 1002 a7bb
000001d0: 86f5 213c ace0 89bd 5893 c3bd bf9e 26bc
000001e0: e0db 963d f913 86bc 5444 c2bd 5ebc 0fbe
000001f0: 1281 283c 063b aa3d 716f 26bd 8676 22bd
00000200: 7402 f9bc de4d 0bbc e18a 0b3d 29dc 0f3d
00000210: ae32 76bc bf7b 803d edd3 073d dce4 ee3c
00000220: 4cc6 3a3d bc4b 3cbd 6554 9e3d 9ee6 8dbb
00000230: 4f94 e33d f047 b03d be50 87bd 0f12 a3bd
00000240: 7c12 ef3c edee 163e 2b41 303d 2183 02be
00000250: da01 00be a518 3cbd 9088 143d be72 47bd
00000260: 261d aa3c 8bab 89bb 3358 ad3c 91f1 b7bb
00000270: c9b6 bbbc 0741 21bd 34a2 fb3c aa8e 3a3d
00000280: 1a9f dabc 52c8 d53c a0cb 6b3c d8ae 33bd
00000290: 3802 42bb 28b4 473c bb99 833c 6672 8cbc
000002a0: 7708 303a 8b24 3c3d 9012 cd3b 8797 333c
000002b0: c8c3 293d fbbe fabc 0969 23bd ef06 263d
000002c0: ceac 74bc 9d70 dd3a 0011 a33c 4bab 063c
000002d0: 270b 033d 30ba 8e3b 41b5 0d3d 4485 db3c
000002e0: d1dd 5b3c bb78 87bc ea7c d4bc 5792 0c3b
000002f0: dc0f ae3c 69e2 18bd eeae 83bb 90c9 1dbd
00000300: d973 d4bc 5f87 353c c62e 6cbb 9050 143d
00000310: 6fa4 233d 5ab9 4d3d 7a06 cf3c 05d8 0e3d
00000320: 2942 cd3b d05e 033d 53c8 45bc 544a 1dbd
00000330: 5bfe 66bc 7168 513d 534b ef3c 0c89 d73c
00000340: 0e80 343c 9525 e13b 36d7 4a3d 22cd b5bc
00000350: d381 fdbc ff0e 84bc 7d05 45bc 9697 eebc
00000360: 4e95 febb 107a 10bd f753 14bc 2172 8dbc
00000370: 9df9 2f3d 70b4 08bd 5a0f 4abd 9b12 74bd
00000380: 4e63 10bd 2c5c 1c3d 1190 0d3c 0486 83bd
00000390: 1a3a 9cbd 2325 82bd 14e1 f33c 75c9 b93a
000003a0: 2bb7 2a3d bc14 e33c 542e 68bd 7c05 6b3d
000003b0: 0091 e13d 71d3 a93c f8e5 563e d12f 95bd
000003c0: 2753 4a3c e512 773d 35e2 cabd 5112 a7bb
000003d0: 82a2 adbc a9e5 f53b 772f c6bc 04c1 3fbe
000003e0: 6f7e e0bd de1c c73c 4d95 403c 001b 3ebd
000003f0: 1269 0abd 3695 c5bb 129f 5fbd a8b7 403d

fc1.bias f4 [120]
-0.016050704 -0.05530542 0.04663187 -0.0011729772 0.022089483 0.018700281 0.010600527 0.11646695
0.031538054 0.04612483 0.0016267914 -0.009296766 -0.0120245535 0.095511615 0.04665437 -0.033953093
-0.047853425 0.017813763 0.0076748393 0.04192321 -0.030351317 -0.04618129 0.055284627 0.00354449
-0.029777996 0.051775154 0.030932883 -0.028015014 0.066168845 0.011578954 -0.024146084 -0.018557804
0.012510826 -0.0026448376 -0.016727377 0.025199845 -0.019750446 0.03559627 -0.0009825032 0.03071136
-0.004026397 -0.027674012 -0.054243222 0.03984436 -0.0013428665 -0.0010810468 -0.0021251028 -0.004464721
0.04914048 0.032284785 0.056003183 0.016068406 0.023068907 -0.042739194 0.009301168 0.021992566
-0.009875611 0.06534788 0.0147330165 0.033680998 0.0041952394 0.044078477 0.038282216 0.03458751
0.016048322 0.024825057 0.048783414 -0.005111414 0.021591553 -0.060504045 0.010189895 0.06566314
0.06602038 -0.019529304 0.014683989 0.022722682 -0.051523294 0.008795336 0.034722682 0.013989695
0.030811045 -0.011979904 -0.040658616 0.01715223 -0.030119544 0.0025439656 -0.033155218 -0.047398742
0.020488484 -0.0023648643 0.08440053 0.05950045 0.057410985 -0.0048028305 -0.033543743 -0.030017707
0.0048820246 -0.057940215 -0.0031265176 0.011012974 -0.038221575 0.022501303 -0.0024190575 -0.0005099472
0.0466009 0.016400894 -0.024957392 -0.018385572 0.09260117 -0.015258898 0.02761541 0.011673726
-0.03611337 0.070363164 -0.06564278 0.01594068 -0.022854825 0.02840373 -0.037240226 0.031064251
00000000: c47c 83bc f087 62bd 0f01 3f3d 95be 99ba
00000010: 01f5 b43c 5531 993c d5ad 2d3c 3986 ee3d
00000020: 0c2e 013d 64ed 3c3d 103a d53a 7651 18bc
00000030: a202 45bc 989b c33d a718 3f3d 6612 0bbd
00000040: f401 44bd 2bee 913c 387d fb3b acb7 2b3d
00000050: 53a3 f8bc 9828 3dbd 2272 623d ad4a 683b
00000060: fcf0 f3bc 2f12 543d f566 fd3c be7f e5bc
00000070: 8883 873d a7b5 3d3c 02ce c5bc 8906 98bc
00000080: 35fa 4c3c 0355 2dbb da07 89bc e86f ce3c
00000090: b0cb a1bc 65cd 113d 56c7 80ba 6496 fb3c
000000a0: deef 83bb 9cb4 e2bc 242e 5ebd d733 233d
000000b0: 1f03 b0ba e9b1 8dba 4f45 0bbb cb4c 92bb
000000c0: 8747 493d 0d3d 043d 9863 653d e4a1 833c
000000d0: 01fb bc3c 4b0f 2fbd ed63 183c c129 b43c
000000e0: 51cd 21bc 1cd5 853d c062 713c 16f5 093d
000000f0: 3878 893b a28b 343d d0cd 1c3d a2ab 0d3d
00000100: c577 833c eb5d cb3c 1ed1 473d a67d a7bb
00000110: c5e0 b03c 17d3 77bd 84f3 263c 657a 863d
00000120: b135 873d ebfb 9fbc 1d95 703c eb24 ba3c
00000130: 170a 53bd 501a 103c 5f39 0e3d 0935 653c
00000140: 7267 fc3c 5c47 44bc a689 26bd d582 8c3c
00000150: 43bd f6bc a9b8 263b c4cd 07bd 2f25 42bd
00000160: 77d7 a73c d7fb 1abb 2fda ac3d beb6 733d
00000170: c827 6b3d 1061 9dbb 2a65 09bd b2e7 f5bc
00000180: 64f9 9f3b b852 6dbd 43e6 4cbb c36f 343c
00000190: 3a8e 1cbd a754 b83c 0d89 1ebb faad 05ba
000001a0: 96e0 3e3d 2b5b 863c 7273 ccbc 579d 96bc
000001b0: afa5 bd3d 7500 7abc b639 e23c 2843 3f3c
000001c0: 9deb 13bd 901a 903d b96f 86bd 0796 823c
000001d0: 0b3a bbbc f0ae e83c 3589 18bd 757a fe3c

fc2.weight f4 [48, 120]
-0.09754519 0.06528665 0.04597885 0.10697097 -0.044582125 -0.023736773 -0.02127917 0.0916753
-0.100725584 -0.06973341 -0.010410208 -0.06935397 0.007994376 -0.07728586 0.016397187 -0.05889399
0.037446298 -0.021717114 -0.03398734 -0.052394785 -0.060731705 -0.051362593 -0.00074057723 0.060210746
-0.03573391 -0.04377573 -0.03070529 0.00817616 -0.00095064 -0.0032380542 -0.021680405 -0.067832515
-0.042554174 -0.0090099685 0.004985843 -0.043249853 0.04835103 0.09696994 -0.10787004 0.04006861
-0.041053712 -0.037768774 -0.0028219891 -0.046896096 -0.028951611 -0.13599202 0.1511323 0.04827031
-0.013653 -0.08087833 0.1627127 0.15236527 0.09235987 -0.0035747627 -0.07286116 -0.00093797705
0.027611976 -0.07416347 0.044950712 -0.040942784 0.014879827 0.00884827 0.046113703 -0.109110914
0.033095784 -0.13748835 0.02133268 0.072097376 0.0705232 -0.009041275 0.02914568 -0.0710386
-0.0039905603 0.018697262 0.008406519 0.055092223 0.004468312 -0.03620351 -0.058703255 0.065276965
0.085071325 -0.09184207 -0.06210497 0.10788575 -0.043290015 0.07559391 -0.07636576 -0.02639723
0.08189742 -0.07125274 0.011631229 0.089631364 -0.06259271 -0.040076207 -0.015893737 0.0024250902
0.004926315 0.108343914 0.0034935342 -0.0050709783 0.0448244 0.06113137 0.00087811786 0.07441647
0.035103053 0.058399852 0.064962946 0.035665605 -0.04100974 0.08418459 -0.039828148 -0.060115688
-0.070308305 -0.0937911 -0.06099726 -0.05149634 -0.016208606 0.08236338 -0.10167853 -0.0756245
-0.07629992 -0.03550907 -0.018978385 -0.2574597 0.12815742 0.03160484 0.24439381 0.12417036
-0.14560783 -0.07791071 0.13083011 -0.08739613 0.14797406 0.1464169 -0.07329529 0.059107047
0.05102125 0.059532937 0.048573826 -0.008399109 -0.112619996 -0.012065822 0.10803697 -0.05719647
0.054032613 0.24113895 -0.1253268 0.053134695 0.13815932 -0.10440204 -0.09298695 0.110398576
0.064484954 -0.09969626 -0.10126771 -0.010580314 0.10293613 0.04865729 0.22395381 -0.16044381
0.07977388 -0.15825616 -0.047475066 -0.14873384 -0.00089152757 -0.101078264 0.064163245 0.043312017
0.21738932 -0.18766084 -0.089002594 0.12151153 -0.06050702 -0.032888092 0.061205287 -0.0041210423
0.055171277 0.12197568 -0.08078172 -0.02981577 0.13617218 0.15667702 0.076795384 0.011554814
0.022650825 0.100482844 0.02749329 0.0041406457 0.0429946 0.05498216 -0.04765509 0.101083614
-0.24127723 0.03191684 -0.18947357 -0.11267948 -0.017369606 0.23220703 -0.1438855 -0.068659164
-0.033385668 0.029078975 0.016090432 -0.008807701 -0.17742418 0.009599972 -0.07099539 0.12284566
-0.091446966 -0.073720895 0.02292665 -0.12968403 -0.021253472 0.12187415 -0.08932904 -0.07374008
0.07286676 -0.08528667 -0.1966454 0.027258838 -0.032184314 0.05526487 0.122844845 -0.118549
0.07636458 -0.019286375 -0.14479636 0.0912177 -0.009183205 -0.06458176 0.041379884 0.026732724
0.0013459112 0.22738841 0.10417505 0.027502827 0.004817836 -0.05593371 -0.0077187037 -0.071653694
0.03251511 -0.04685417 0.0950278 0.023232983 0.015155 0.15233564 -0.018325036 -0.080206215
-0.078597404 -0.086960465 0.2738754 0.10353205 -0.16069567 -0.0104577495 -0.027261855 -0.21054007
00000000: c6c5 c7bd 02b5 853d 5254 3c3d 9913 db3d
00000010: bf9b 36bd 9f73 c2bc a751 aebc 42c0 bb3d
00000020: 3749 cebd 64d0 8ebd 948f 2abc 7409 8ebd
00000030: d8fa 023c 0d48 9ebd 6553 863c d33a 71bd
00000040: 4a61 193d 17e8 b1bc 4f36 0bbd ea9b 56bd
00000050: cfc1 78bd 9561 52bd 4c23 42ba 8b9f 763d
00000060: b85d 12bd 2e4e 33bd a989 fbbc 4df5 053c
00000070: 5f34 79ba 8935 54bb 1b9b b1bc c6eb 8abd
00000080: 494d 2ebd 8c9e 13bc 4860 a33b c226 31bd
00000090: bb0b 463d 2d98 c63d f8ea dcbd fc1e 243d
000000a0: f027 28bd 6eb3 1abd 1ff1 38bb 1f16 40bd
000000b0: ee2b edbc 7e41 0bbe 6dc2 1a3e 17b7 453d
000000c0: d5b0 5fbc 8aa3 a5bd 289e 263e a405 1c3e
000000d0: 2c27 bd3d 9146 6abb 3b38 95bd 93e2 75ba
000000e0: 8332 e23c 04e3 97bd 3d1e 383d 9fb3 27bd
000000f0: 85ca 733c 56f8 103c b9e1 3c3d 8b75 dfbd
00000100: 728f 073d bfc9 0cbe dfc1 ae3c caa7 933d
00000110: 786e 903d db21 14bc ecc2 ee3c af7c 91bd
00000120: 3fc3 82bb 002b 993c 7fbb 093c 62a8 613d
00000130: eb6a 923b 224a 14bd d372 70bd eeaf 853d
00000140: e039 ae3d b217 bcbd c861 7ebd 34f3 dc3d
00000150: df50 31bd fbd0 9a3d a765 9cbd 013f d8bc
00000160: d6b9 a73d f5ec 91bd e990 3e3c a690 b73d
00000170: 9b30 80bd f326 24bd 9533 82bc 43ee 1e3b
00000180: ed6c a13b 6ae3 dd3d c7f3 643b 732a a6bb
00000190: ca99 373d e364 7a3d 7e31 663a aa67 983d
000001a0: 38c8 0f3d af34 6f3d 4b0b 853d 1916 123d
000001b0: d4f9 27bd f868 ac3d d722 23bd de3b 76bd
000001c0: cdfd 8fbd 8c15 c0bd 43d8 79bd d4ed 52bd
000001d0: e9c7 84bc 22ae a83d d53c d0bd 05e1 9abd
000001e0: 2243 9cbd f571 11bd 8f78 9bbc c2d1 83be
000001f0: b33b 033e 1474 013d 5f42 7a3e 084d fe3d
00000200: 381a 15be a68f 9fbd 54f8 053e befc b2bd
00000210: 8386 173e 50ee 153e d71b 96bd 3b1a 723d
00000220: a9fb 503d cfd8 733d 59f5 463d 6b9c 09bc
00000230: 50a5 e6bd baaf 45bc 7d42 dd3d d946 6abd
00000240: 4d51 5d3d 21ed 763e ab55 00be c4a3 593d
00000250: a379 0d3e bdd0 d5bd f16f bebd a618 e23d
00000260: b010 843d 8e2d ccbd 7265 cfbd 0e59 2dbc
00000270: 2dd0 d23d de4c 473d 2654 653e 624b 24be
00000280: 7d60 a33d e70d 22be 3775 42bd af4d 18be
00000290: 67b5 69ba 1f02 cfbd 0568 833d f167 313d
000002a0: 4e9b 5e3e 2a2a 40be fe46 b6bd 09db f83d
000002b0: 36d6 77bd aab5 06bd 65b2 7a3d cf09 87bb
000002c0: 47fb 613d 63ce f93d e370 a5bd 3440 f4bc
000002d0: b870 0b3e f16f 203e e646 9d3d 6750 3d3c
000002e0: 398e b93c f3c9 cd3d 9c39 e13c 41ae 873b
000002f0: 1b1b 303d f934 613d fc31 43bd ed04 cf3d
00000300: 6111 77be 3bbb 023d 5c05 42be 80c4 e6bd
00000310: b44a 8ebc aec7 6d3e b856 13be 2d9d 8cbd
00000320: 69bf 08bd 0837 ee3c 15d0 833c 2d4e 10bc
00000330: afae 35be 3349 1d3c 0866 91bd 8196 fb3d
00000340: 8c48 bbbd fbfa 96bd abd0 bb3c e4cb 04be
00000350: c31b aebc 2899 f93d 25f2 b6bd 0a05 97bd
00000360: 2b3b 953d c7aa aebd 695d 49be ed4d df3c
00000370: b3d3 03bd 6b5d 623d 1496 fb3d d1c9 f2bd
00000380: 0865 9c3d 76fe 9dbc 7f45 14be 58d0 ba3d
00000390: 2775 16bc 7143 84bd f47d 293d 96fe da3c
000003a0: 4969 b03a 82d8 683e bb59 d53d 9c4d e13c
000003b0: f0de 9d3b bf1a 65bd 2eed fcbb 2cbf 92bd
000003c0: 902e 053d 28ea 3fbd ef9d c23d 1953 be3c
000003d0: ad4c 783c e0fd 1b3e 631e 96bc 2843 a4bd
000003e0: adf7 a0bd 5418 b2bd 6539 8c3e 9d08 d43d
000003f0: 688d 24be fb56 2bbc 4154 dfbc d197 57be

fc2.bias f4 [48]
-0.10390718 0.15179692 -0.06246948 0.10216995 -0.033277273 -0.11499802 0.05098374 -0.09047686
-0.066925235 0.18436813 0.11263219 0.12638505 0.22006689 -0.05168945 -0.017956069 -0.06889119
-0.087434925 -0.10921409 0.026691122 -0.019809395 -0.0023417757 -0.058459703 0.12355972 -0.0026061127
0.033057816 0.009807373 0.08011394 0.004011242 0.018175893 -0.054529563 -0.037828583 0.17641692
-0.06509145 -0.0016149989 0.03590065 -0.03781268 -0.04352566 0.15888155 0.051758368 -0.07382899
-0.045258302 0.12629007 0.23674072 -0.012589661 -0.015186566 -0.00018411437 -0.032516107 0.01591078
00000000: 4acd d4bd a770 1b3e ffdf 7fbd 7b3e d13d
00000010: c04d 08bd 1584 ebbd 53d4 503d ef4b b9bd
00000020: 1910 89bd 00cb 3c3e b5ab e63d 156b 013e
00000030: 3759 613e 51b8 53bd 9b18 93bc d316 8dbd
00000040: 1511 b3bd a3ab dfbd 57a7 da3c 5047 a2bc
00000050: 7a78 19bb 7173 6fbd e10c fd3d 51cb 2abb
00000060: a267 073d 1baf 203c c712 a43d bd70 833b
00000070: 9ce5 943c 645a 5fbd 25f2 1abd a3a6 343e
00000080: ab4e 85bd 5fae d3ba 8f0c 133d 78e1 1abd
00000090: f647 32bd d8b1 223e 9500 543d a733 97bd
000000a0: c560 39bd 2f52 013e 296c 723e de44 4ebc
000000b0: 13d1 78bc d30e 41b9 9c2f 05bd 5357 823c

fc3.weight f4 [25, 48]
-0.029229514 0.035167173 -0.17426385 -0.04773779 -0.23345563 0.013842582 -0.1769366 0.15669307
-0.0839044 -0.20912711 -0.17417455 -0.08879025 -0.30011064 0.4136748 -0.091704026 0.23573595
0.08058927 -0.011965586 -0.023165833 0.05788356 0.10740636 0.11891079 -0.074799255 0.13471563
0.13758466 0.1268996 -0.11476184 -0.054866686 -0.01769719 -0.11902873 -0.029826857 -0.38969105
0.06438354 0.053415973 0.01226431 0.3100066 -0.33560854 0.14726298 -0.0075977175 0.36260918
0.087650254 -0.06942419 -0.0747234 0.08312507 0.43712157 0.025083989 0.14644219 0.10993631
-0.025458226 0.102166824 0.018430911 0.20279567 -0.20217481 -0.08575469 0.12204372 -0.046560273
0.29666418 -0.36555243 -0.44604695 -0.15975007 -0.36420807 -0.46650422 -0.026432822 -0.17207798
-0.14540058 -0.059729856 0.19754925 0.02791839 0.0046048784 -0.026150241 0.18230654 -0.0480176
-0.016781803 0.100590594 0.3927756 -0.10935043 0.0701636 0.0006058829 0.09745661 0.2936849
-0.069325455 -0.004345399 -0.11597269 0.1709713 -0.14046513 0.37984106 -0.057947293 -0.012347755
-0.026341708 0.2196663 0.21269156 0.01722082 -0.16530327 -0.113472104 -0.13143036 -0.05026799
0.098916225 -0.29039863 -0.14220868 -0.42002162 0.4591256 -0.10946453 0.5472195 0.039961312
0.0041125813 0.06433365 -0.19476959 -0.29955682 -0.013946205 0.120622545 0.13600555 0.2164541
0.13990389 -0.07493768 0.19205545 -0.10627305 -0.26995277 -0.14387079 -0.098627724 0.01708955
0.06488618 0.14027254 0.08866783 -0.040227793 0.048428357 -0.03216913 0.13520324 -0.32646224
-0.08518483 0.04481296 -0.09018028 -0.12577611 -0.26673767 -0.09228907 0.09552017 -0.08078546
0.031137396 0.08783399 -0.342683 0.028950157 -0.07303828 0.042591665 0.5195998 0.11646266
-0.1506347 0.12671752 -0.3908238 0.1278019 -0.2225893 0.047940083 0.20859179 -0.09362382
0.015813809 0.08101918 0.16502118 0.14687872 0.3969169 0.38610813 0.2564134 -0.23179577
-0.106343746 -0.0731583 -0.23708047 -0.11835814 0.34580874 0.047762677 0.04808902 -0.12038434
-0.115226924 0.097583264 0.34340617 0.11481402 -0.15782017 -0.10880961 -0.03389803 0.073730156
0.16048086 0.023283256 -0.12438627 -0.06407687 0.6566818 -0.21523736 -0.04816838 -0.10103758
-0.053105913 -0.22156641 -0.42152452 -0.06572934 0.14751273 -0.04637011 -0.18469608 0.050097566
-0.07670007 -0.08591186 0.013879343 -0.06654299 0.14848952 -0.084568955 -0.025067464 -0.18189597
0.35005414 -0.100863755 -0.2957024 -0.041998237 -0.35109472 0.3928272 -0.06834671 0.17850542
0.009680966 -0.13511045 -0.094775766 0.13905236 -0.40552482 0.10611457 0.3930334 -0.17370224
-0.11427927 -0.11271748 0.4024176 -0.04097775 -0.197712 0.10809521 -0.041041356 -0.24059255
-0.057602808 0.052947782 -0.07329388 0.26678225 -0.10041813 0.29770246 0.10592245 0.025805697
0.0958555 -0.022917965 0.15234384 -0.12633744 0.10046124 -0.009860579 0.06261542 -0.0180332
-0.17963274 0.22315988 -0.12694746 0.035570066 0.39685747 0.16304243 0.22554874 -0.012739033
-0.16033758 0.082735814 -0.24531303 -0.29800522 -0.08581979 0.003941184 -0.18056785 -0.10631074
00000000: bc72 efbc 740b 103d 3972 32be b388 43bd
00000010: fe0e 6fbe ffcb 623c de2e 35be 2674 203e
00000020: 12d6 abbd 6b25 56be d05a 32be aad7 b5bd
00000030: 1aa8 99be 2fcd d33e 52cf bbbd c464 713e
00000040: fd0b a53d 4e0b 44bc 46c6 bdbc 5017 6d3d
00000050: def7 db3d 8087 f33d 5a30 99bd e5f2 093e
00000060: fee2 0c3e f8f1 013e 4108 ebbd e4bb 60bd
00000070: b3f9 90bc 56c5 f3bd 7457 f4bc 9685 c7be
00000080: 84db 833d b5ca 5a3d 3ff0 483c 2fb9 9e3e
00000090: e2d4 abbe 1bcc 163e 46f6 f8bb e9a7 b93e
000000a0: fa81 b33d 452e 8ebd 9508 99bd 7a3d aa3d
000000b0: 66ce df3e f07c cd3c f1f4 153e 4a26 e13d
000000c0: c58d d0bc d73c d13d 6cfc 963c aba9 4f3e
000000d0: ea06 4fbe 28a0 afbd 0ff2 f93d fcb5 3ebd
000000e0: 5ee4 973e b029 bbbe 4460 e4be 8695 23be
000000f0: 7b79 babe a4d9 eebe a589 d8bc 3635 30be
00000100: e4e3 14be 4ba7 74bd 5a4a 4a3e 1cb5 e43c
00000110: 85e4 963b 0839 d6bc 91ae 3a3e 1aae 44bd
00000120: fe79 89bc 7102 ce3d e219 c93e 1ef3 dfbd
00000130: efb1 8f3d 1dd4 1e3a 5597 c73d de5d 963e
00000140: 81fa 8dbd d963 8ebb 1783 edbd 1a13 2f3e
00000150: 17d6 0fbe 877a c23e 245a 6dbd 3d4e 4abc
00000160: 91ca d7bc 34f0 603e d1cb 593e ad12 8d3c
00000170: 4345 29be 1064 e8bd ae95 06be cfe5 4dbd
00000180: 9794 ca3d 21af 94be 279f 11be 130d d7be
00000190: 8312 eb3e f12e e0bd 9416 0c3f 79ae 233d
000001a0: d5c2 863b 5cc1 833d ae71 47be 835f 99be
000001b0: a07e 64bc f408 f73d 0a45 0b3e 25a6 5d3e
000001c0: f742 0f3e ed78 99bd 2faa 443e afa5 d9bd
000001d0: 4037 8abe dd52 13be 55fd c9bd 62ff 8b3c
000001e0: 0ce3 843d 9ba3 0f3e 7b97 b53d e6c5 24bd
000001f0: d05c 463d c7c3 03bd b872 0a3e 0f26 a7be
00000200: 6275 aebd cb8d 373d 70b0 b8bd 74cb 00be
00000210: d791 88be 0d02 bdbd 14a0 c33d d972 a5bd
00000220: da13 ff3c 4fe2 b33d 2574 afbe e128 ed3c
00000230: 1895 95bd 9974 2e3d 7e04 053f fa83 ee3d
00000240: fc3f 1abe 3dc2 013e 0f1a c8be 80de 023e
00000250: 73ee 63be d25c 443d 1699 553e d8bd bfbd
00000260: f68b 813c 62ed a53d 50fb 283e 6067 163e
00000270: b138 cb3e f7af c53e 9e48 833e df5b 6dbe
00000280: c0ca d9bd 05d4 95bd 39c5 72be c165 f2bd
00000290: d80d b13e cca2 433d fef8 443d 118c f6bd
000002a0: 18fc ebbd bcd9 c73d efd2 af3e 9d23 eb3d
000002b0: 9c9b 21be 93d7 debd a9d8 0abd d6ff 963d
000002c0: 1855 243e 87bc be3c 3bbe febd bc3a 83bd
000002d0: 4c1c 283f 2f67 5cbe 354c 45bd caec cebd
000002e0: 9685 59bd 4ee2 62be 10d2 d7be 1b9d 86bd
000002f0: 940d 173e 96ee 3dbd f820 3dbe 1b33 4d3d
00000300: ed14 9dbd 8ff2 afbd 2f66 633c b147 88bd
00000310: a30d 183e 7d32 adbd 485a cdbc f042 3abe
00000320: 4c3a b33e a891 cebd 4e66 97be 5806 2cbd
00000330: b0c2 b3be a620 c93e 5cf9 8bbd 20ca 363e
00000340: ea9c 1e3c 655a 0abe cc19 c2bd be63 0e3e
00000350: f3a0 cfbe 9852 d93d ac3b c93e 00df 31be
00000360: 400b eabd 6cd8 e6bd ae09 ce3e 49d8 27bd
00000370: 0475 4abe 0561 dd3d fb1a 28bd e55d 76be
00000380: ecf0 6bbd c6df 583d 1a1b 96bd af97 883e
00000390: 05a8 cdbd 756c 983e dfed d83d 7866 d33c
000003a0: e34f c43d 75be bbbc 0600 1c3e 9a5e 01be
000003b0: 9fbe cd3d 448e 21bc 833c 803d 5dba 93bc
000003c0: a5f1 37be 0684 643e 84fe 01be ebb1 113d
000003d0: e730 cb3e 98f4 263e 40f6 663e 61b7 50bc
000003e0: 892f 24be 6571 a93d 5733 7bbe 2494 98be
000003f0: 49c2 afbd 0c25 813b c7e6 38be 72b9 d9bd

fc3.bias f4 [25]
-0.16960108 0.14807028 -0.18210994 -0.060338825 -0.28905407 0.04620535 0.063046664 0.038212206
0.15563387 0.06053823 -0.0088004675 0.09606802 0.17143446 -0.2589066 0.33577213 -0.06046022
0.0075512147 -0.06942179 0.16954681 0.10980024 -0.042614337 0.19950739 0.024333974 -0.030810837
-0.6127342
00000000: e8ab 2dbe bc9f 173e 077b 3abe d825 77bd
00000010: e5fe 93be d241 3d3d 9c1e 813d 6784 1c3d
00000020: 7c5e 1f3e eff6 773d d62f 10bc 4fbf c43d
00000030: 848c 2f3e 688f 84be 53ea ab3e 23a5 77bd
00000040: 2e70 f73b 032d 8ebd ae9d 2d3e f3de e03d
00000050: 5f8c 2ebd aa4b 4c3e 0b58 c73c 0267 fcbc
00000060: 26dc 1cbf
