signlanguage.onnx (onnx, 227197 bytes, 12 tensors)

conv1.bias f4 [6]
00000000: ca97 d8be a98f 5d3e 88f6 5b3e d62e 513f
00000010: 7b56 d33e 1b38 4f3f
-0.42303306 0.21636833 0.21480763 0.8171209 0.41276917 0.80944985

conv1.weight f4 [6, 1, 3, 3]
00000000: 7337 813e a0d5 d23d ea4e 7dbe 030d 163e
00000010: 846c 11be 0235 afbc 32e7 af3c b1e6 6bbe
00000020: 4080 fe3d 08ff 953e e424 e1be 61fa 9fbd
00000030: d232 69be d526 fabe e7b4 f13e 3487 babd
00000040: a90a 3cbd 96be 1f3f ec5d cdbe 62c6 b33e
00000050: c029 b73e 72b8 21bf ddad 793e 1978 0d3f
00000060: 1ddc cebe 8b11 4f3e 50d3 cc3e 5768 533e
00000070: 67b5 7bbf a3bb 90bf ad0c cb3e 09a5 ecbe
00000080: 7d94 adbe 6905 633f 9f9e 493e b33b 0e3f
00000090: 35dd 3ebe a721 04bf 3197 29be 9b50 88be
000000a0: eef4 e9be 344f 8a3e 13be b6bd 828c f9be
000000b0: fb4c 2f3d 91ad 89be 9071 e8bd 3fc1 43be
000000c0: 4610 adbe 0690 16bf 6a90 da3e c870 993e
000000d0: 44cb 26bd c4ac be3e
0.25237617 0.10294652 -0.24737135 0.14653401 -0.14201552 -0.02138758 0.021472547 -0.2303722
0.124268055 0.29296136 -0.43973458 -0.07811428 -0.22773293 -0.4885775 0.4720833 -0.09107819
-0.045908604 0.62400186 -0.4011072 0.35112292 0.3577404 -0.63172066 0.2438273 0.5526138
-0.40402308 0.20221536 0.4000497 0.20645271 -0.98323673 -1.1307262 0.39658108 -0.46219662
-0.3390235 0.8868013 0.19689415 0.55559844 -0.18639071 -0.5161385 -0.16561581 -0.26623997
-0.4569468 0.27013552 -0.089229725 -0.4874001 0.042798024 -0.26890233 -0.11349785 -0.19116686
-0.33801478 -0.5881351 0.42688304 0.29968858 -0.040721193 0.37241185

conv2.bias f4 [6]
00000000: ae64 05be 3a93 08be 99b3 a8bc d711 8d3e
00000010: ed59 033c b521 703e
-0.13026688 -0.13337412 -0.020593451 0.27552673 0.008017045 0.23450358

conv2.weight f4 [6, 6, 3, 3]
00000000: 0a68 05be f55a ec3d 580c 80bd ab12 f43d
00000010: 0700 1fbd ca36 78bd 42a4 ff3c b02a f4bb
00000020: b565 973d b7d1 9e3d d2de c13d 53ec f93d
00000030: bf11 42bd e7c1 873c 50cf 173d d8a0 a2ba
00000040: 294e 03bc d1d7 f3bc 112c c93d d6fd 993d
00000050: c3ef aebd a93b 883e 5675 f43d f03f 5b3e
00000060: 3edb 293e b458 c23e da3d 373e b6dc 5dbc
00000070: 06c1 883e 8f14 413e d70e 74bd 9381 e73d
00000080: d94c 28be 4e01 113e abf7 13be 1208 f9bd
00000090: 2d12 21be 95b8 6ebe b7c8 993c b7c4 4abd
000000a0: 5b41 4bbe 6ac1 11be 64da 05bc b6fe 8bbc
000000b0: bf7b a3bd 4a85 39be a129 9b3d 228b 91bd
000000c0: a1eb 91bd 7ac5 343c 511f efbd ae9e debb
000000d0: d538 9a3d 25c0 90bd cef3 0bbe a93e c9bd
000000e0: f7ec 2b3d bcf8 023e 590e aabc 066b 163c
000000f0: ab9a 96bd 856b 973d 7d00 a9bd ff73 49bd
00000100: ebc0 44be c41b 2fbe c60e e9bd 5965 9ebd
00000110: 5b25 83be 864d 00be b4ce e4bd fce8 8fbe
00000120: 7685 78be 4a24 83be 30ef 88bc fd2c 8dbd
00000130: f941 1cbe e3cf d2bd 467c 3dbd c744 f33c
00000140: f173 babe 3f44 a03e 8b92 c13e acb1 143c
00000150: ba57 4b3e 993f 893e 2a92 833e bc38 58bd
00000160: f7db 263e 787d a33e 1a9a 02be 2a11 27bc
00000170: 03d7 623c b4fc abbd 6517 00be 6099 f33c
00000180: 8e8f a53a 909c 3fbe e790 54be 2207 a13a
00000190: 95b5 8c3d 5288 db3d e339 db3b dba0 ffbd
000001a0: 5d1f e1bd ab47 48be b2d2 83bd 5a8e 32be
000001b0: dab2 0a3c 7ed6 bbbd d0af e13d e2aa bbbc
000001c0: 3744 5abd 29e3 d03b 435b aabd 6839 933a
000001d0: 993b 84bd 1894 91bd a936 753e d0e3 5c3d
000001e0: fb4a 26bd 8fd4 063e c579 283d 475d 36bd
000001f0: 6501 453e 0700 94bd f669 b8be a408 ec3a
00000200: 6246 f43d e5a4 93be b5a3 7a3c c231 7d3e
00000210: 1885 9fbd 0285 c63d 52ee 693e 9613 f43e
00000220: b015 243c 0938 92be 56fc e13e 2f85 21be
00000230: 8edd bebe f202 493e 49b0 61be b5f7 a9be
00000240: 3cae 4ebe 4b44 6ebd 13f8 533d ef0f 49be
00000250: b387 1e3e 66f9 3abd a356 34be 5896 cc3d
00000260: b0a0 6cbe 7513 33be 9283 0f3e 3be4 dc3d
00000270: d2e3 5d3c 4bdf 213e 7231 fabc e04d 0ebe
00000280: fbbd 023c 8a88 833d 23a3 e5bd 0099 963d
00000290: 62eb ef3b 260c 6a3d 5d25 bc3d 3906 7cbd
000002a0: 92ef c5bb e289 bb3c 3261 62bc 1a07 2a3c
000002b0: c18d b3bb 070d e0bc 2b3d df3d b655 b93c
000002c0: 35ac ba3d a1f9 e23d 9dbc 183c a34a 03bd
000002d0: 2ec9 9ebe 2603 a53c fde3 c7bd c2c0 abbe
000002e0: 19e0 1f3c 480d a73c c0fe 07be 23d4 5a3e
000002f0: fb12 253d e76f 303e 0baa 16be eb50 11be
00000300: 9e6e 3b3e f96a c3bd b801 933d 856f be3e
00000310: a1fb b7bd 1d67 1c3e 2403 1a3e 2d09 5e3e
00000320: 93cb f43d 963e 913e 1777 873e 631e 6b3e
00000330: 40fa 963e e0e6 e73d 01ce 463e 93ce 203d
00000340: eb24 153d d6eb fc3d d3dd 333e cdea 4e3e
00000350: 24ef 703d f30b d73d f246 9c3e fe26 713e
00000360: e257 383d a89e 123d 88a8 fe3c aeb5 8d3a
00000370: 6598 3a3d 7d8d 08be 89df b7bd ceef e93d
00000380: 2890 e7bd bf52 1a3e c52e 0dbe 8150 ef3b
00000390: 2983 c73d 467d 02be b27e 9b3d 5147 b3bd
000003a0: d656 d0bd 9071 753d 73e5 d83c 41f6 88be
000003b0: 4cfe 9bbe 7cf0 703d b4dd 05be f843 a5bd
000003c0: 4893 473e 3376 cc3d b1a8 6abd 6a58 5a3e
000003d0: 415e f83e a8cf e93e 02fc 3e3e 5d4f b63e
000003e0: ea23 ba3e 3612 2abe 5ff5 2bbd 5368 f23d
000003f0: fcad 98bd 6388 f83d 7b0e 653e 054e 59be
-0.13027969 0.11540786 -0.062523544 0.11917623 -0.038818385 -0.060599126 0.031206254 -0.007451378
0.07392446 0.07754844 0.09466328 0.122032784 -0.047380205 0.016571952 0.037062943 -0.0012407554
-0.00801424 -0.029765995 0.09822858 0.075191185 -0.08541825 0.26608017 0.119364426 0.21411109
0.1658754 0.379583 0.17894688 -0.013541391 0.26709765 0.18855499 -0.059584465 0.11304011
-0.16435565 0.14160654 -0.14449947 -0.121597424 -0.1572959 -0.233126 0.018772466 -0.04950401
-0.1984915 -0.14233938 -0.008169744 -0.01708923 -0.07982587 -0.18117252 0.075762995 -0.071066156
-0.07125021 0.01103341 -0.11675895 -0.0067938184 0.07530371 -0.07067899 -0.13667223 -0.098264046
0.041974034 0.12790197 -0.020758795 0.00918079 -0.07353719 0.073935546 -0.08252046 -0.049182888
-0.19214217 -0.17100435 -0.11379771 -0.07734174 -0.25614437 -0.12529573 -0.11172238 -0.2810744
-0.24269661 -0.25613624 -0.016715616 -0.068933465 -0.15259542 -0.102935575 -0.046261095 0.029695882
-0.3641658 0.31302068 0.37807116 0.009075563 0.19857684 0.26806334 0.25697452 -0.05278848
0.16294847 0.31931663 -0.12754098 -0.010196963 0.013845208 -0.08397809 -0.12508924 0.02973622
0.0012631284 -0.18712068 -0.20758401 0.0012285451 0.068705715 0.107193604 0.0066902502 -0.124818526
-0.1099231 -0.19558589 -0.06436671 -0.17437115 0.008465493 -0.091717705 0.11019862 -0.022908632
-0.05328771 0.006374736 -0.08318188 0.0011232318 -0.0645668 -0.07108325 0.23946632 0.053928196
-0.04059885 0.13167022 0.041131753 -0.04452255 0.19238813 -0.07226568 -0.36018342 0.0018007946
0.11927487 -0.28836742 0.01529782 0.24726012 -0.077890575 0.09693338 0.22844818 0.47671193
0.010014936 -0.28558376 0.4413783 -0.15773462 -0.37278408 0.1963003 -0.22039904 -0.33196798
-0.20183653 -0.058170598 0.051750254 -0.19634984 0.15481453 -0.045648 -0.17611174 0.09989613
-0.23108172 -0.17487891 0.14015034 0.10785719 0.013543086 0.15807836 -0.030541155 -0.13896894
0.007979865 0.06422527 -0.112127565 0.07353401 0.007321761 0.057140492 0.09186814 -0.061529372
-0.006040522 0.022892896 -0.0138171185 0.01037767 -0.005479545 -0.027349962 0.10900339 0.022623878
0.09114877 0.11082769 0.009322313 -0.0320536 -0.31012863 0.020143103 -0.09760282 -0.335455
0.009758019 0.020392075 -0.13280773 0.21369986 0.040301304 0.17230187 -0.14713304 -0.14191024
0.18303916 -0.09541888 0.07178062 0.37194458 -0.08983541 0.1527371 0.1504026 0.21683188
0.11952891 0.28368062 0.26458046 0.2296081 0.294878 0.11323333 0.19414522 0.039259505
0.03641216 0.1234967 0.17565088 0.20206757 0.058821812 0.10500326 0.30522877 0.2355003
0.045005687 0.035795838 0.031086221 0.0010811591 0.04555549 -0.13335223 -0.08978183 0.11422692
-0.113067925 0.15070628 -0.13787372 0.007303298 0.09741814 -0.127431 0.075925246 -0.08753837
-0.10172813 0.059922755 0.026476597 -0.26750377 -0.3046745 0.058823094 -0.13072854 -0.08069605
0.19489777 0.09983482 -0.057289783 0.2132279 0.4850941 0.45666242 0.18650821 0.35607424
0.36355525 -0.1660851 -0.04198205 0.118363045 -0.0745506 0.12135389 0.22368805 -0.21221168

conv3.bias f4 [16]
00000000: ff8b 81be 628b a4bd d2aa 0f3d 3451 933e
00000010: c285 a03d 53c2 98bc ed7c 23bc 08a2 a5bd
00000020: bd4b 89bd 6277 a0b9 aca8 f9bd cb61 f63d
00000030: cfc1 37bc 3b46 73be 4c0b 483e bd9b cbbd
-0.2530212 -0.08034398 0.035075016 0.2877289 0.07838012 -0.018647349 -0.009978515 -0.08087546
-0.06703899 -0.00030606525 -0.12190375 0.12030371 -0.011215641 -0.2375726 0.1953556 -0.09941814

conv3.weight f4 [16, 6, 3, 3]
00000000: f3f3 d3bd df5c 92be 9135 dbbd 2182 e53d
00000010: fbd0 62be 9a7b e7bd 42e5 0c3d 7145 49bd
00000020: c815 7ebd f9ec d93e e88a d33d 3cf1 38be
00000030: cd55 3d3e 1345 0b3e 597c f7bd 3648 0bbd
00000040: e67a 1e3e be7d 223e 8564 3b3d 30a9 10be
00000050: 93a8 c0bd 24a4 e6bd b50b e4bc 5c5b aabd
00000060: 06c0 0e3d 3d50 c4bd 406a aa3d ec0f 9bbe
00000070: d60a af3e 653f 253e a489 babd 5e1e d73d
00000080: 0d41 8e3e d928 cabd 4b59 e3be ed79 ebbd
00000090: 1d07 8e3e 1eac 363c c755 9fbe d90b e03d
000000a0: 9b98 0d3e 42ac 8b3d 43af e2bd d533 483e
000000b0: 395e f53d 7607 bd3d 78ae 4f3d 9f14 73be
000000c0: b46e b3bd cb61 9a3e 18e7 3c3d 5b1e f6be
000000d0: 8fb4 54be e79c 1fbc 725f 26be 7ae9 a13b
000000e0: a962 18be 4fd9 45be ef13 23bd f124 073d
000000f0: 5fb2 a9bd 2d5a 6bba db2d af3c d68d 3fbe
00000100: 1513 aebc ea7e 9abd c0a8 563d 7836 463d
00000110: fda0 363e 52bb d13d 974d 18be eed9 a7bb
00000120: 3d6b 1a3e d565 9c3a e3b8 993e 40fd 683d
00000130: afe3 3c3d 265d 0a3e 0e48 78bc 2200 03be
00000140: f973 c8bd e5cb 433c c99f 39be 030b 343e
00000150: 2445 6c3e d186 00be 9924 08be 066f c1bb
00000160: 92f5 2ebe a691 02bf 0ce6 6bbd 7bbd cebd
00000170: b380 6e3d 610a fb3c fcc8 1c3d 3feb 3e3e
00000180: f9fb a2bc a970 0bbe 0f13 9e3c 871a 63be
00000190: 1694 bfbd 962d 0c3f e2b5 193e f706 183d
000001a0: 0960 a63e 3568 ce3d 810f eebe 9dfa 65be
000001b0: 1a57 e03d 4b5c 97bd 4127 7fbe 85bc d7bd
000001c0: a7da a63b c49d 403d 894e 26be cc6a 1a3e
000001d0: 5e4f dfbd 4730 f8bd 21a3 ff3d 175a 3c3e
000001e0: fad6 263e 5ebd 563d d5fe 303e 0dc3 323e
000001f0: 2ef4 98bd 799a f33b 20b7 d53d b0c5 2fbd
00000200: cd9f 903d 061c 5d3d 0ad8 fe3c 8fe5 b23c
00000210: d4d6 08bc 97a8 193e 9b8c 81be d0a1 afbc
00000220: 2dba 22be cca1 81bd a118 533e 49d2 07be
00000230: 44ed 27be b2ad b23e f16b c13d 41b6 1ebe
00000240: e5ad 8fbe ad96 b63d 6ca9 3b3b a885 49bd
00000250: 582d 78bd 97c6 1d3e 6856 2a3e 6d92 58be
00000260: f6ed 1c3e 67f1 16be fb4a b1be b47b 0f3e
00000270: 7073 843d d6c5 babe e6b0 85bd 8637 723e
00000280: 2fbc 07be bf0b 87bd e5b1 e73d 9b8b a13d
00000290: cb02 d63b b5d5 98bd c80d bc3d 2bfc 383e
000002a0: 1708 dcbd a93c 4ebd cc29 513e 6e5c 073c
000002b0: 860b 4bbe 6c3d 4a3d 00ff 0ebe 0aa3 34be
000002c0: dd78 303c 1f6a a5bd 7982 e7bd 4cde 87bd
000002d0: 88c1 0f3d 3b71 ef3d 629a 96bd c27a 3a3d
000002e0: b85f 40bb 8bf2 8d3d e98e dfbd bc92 9f3d
000002f0: e59c 7f3d ac4a ef3d adf7 983d 9b6f 31be
00000300: 80e2 043e 3731 5cbe fac9 ebbd 95ed fabd
00000310: 1259 24be 5d68 6f3d 18dc 12bd 1842 eebd
00000320: 3390 3d3d 921d 073c c0da b4bd 4df8 2f3e
00000330: 6789 07be 574d 98bd 8ac1 023e 410a 4d3d
00000340: a227 15be 5f83 a9bd a50d 3bbe c4ec 28be
00000350: 386f 8e3e afb1 c4bd 7293 7fbd 4c74 f03d
00000360: 899b c03d d216 7e3d 97f6 27be b7a4 ef3d
00000370: 5605 68bd 590e 7bbe 0140 e53d 6793 683d
00000380: 676c 99be 6904 abbd 10e1 233e 10b7 b43c
00000390: 26b9 683c 841a f63c cdb9 853c 826e 94bd
000003a0: 5e59 3a3e 531d c63d 9457 97bd 73a0 5c3d
000003b0: 98dc f13c 6912 22bc d4da 18be 2600 58bd
000003c0: 0c2d 57bd 537c a1bd d809 963d 8aa8 88be
000003d0: 1f49 ecbd 63ab 6f3d f91a 4bbe 4801 e8bd
000003e0: 5ecf 453e 6531 90bd c57d 44be 0b2b 393e
000003f0: 8c8a abbc d844 cb3d a422 1f3e 0033 4fbd
-0.10349264 -0.2858648 -0.10703576 0.11206461 -0.22150032 -0.11302872 0.034398325 -0.04913849
-0.06203249 0.42563608 0.10329229 -0.18060774 0.18489762 0.13600568 -0.12084264 -0.034004413
0.1547657 0.1586828 0.04575016 -0.1412704 -0.09407153 -0.11261776 -0.027837614 -0.08318207
0.034851097 -0.09585617 0.08321047 -0.30285585 0.34187955 0.16137464 -0.09108284 0.10503839
0.27784005 -0.09871072 -0.44404063 -0.11497865 0.27739802 0.011149434 -0.3112013 0.1093976
0.13827746 0.06819965 -0.11068585 0.19551022 0.11980862 0.09229939 0.050703496 -0.23738335
-0.08761349 0.30152735 0.046118826 -0.48070034 -0.20772003 -0.009741998 -0.16247347 0.0049411627
-0.14881386 -0.19321178 -0.039813932 0.032994214 -0.08285975 -0.0008977976 0.02138417 -0.1870645
-0.021249333 -0.07543738 0.052407026 0.04839179 0.1783485 0.10240807 -0.14873348 -0.005122415
0.1507997 0.0011932204 0.3002387 0.056882143 0.046115573 0.13512096 -0.015153898 -0.1279302
-0.09787745 0.011950468 -0.1812736 0.17582326 0.2307325 -0.12551428 -0.13295211 -0.0059031276
-0.17085865 -0.5100349 -0.057592437 -0.10094734 0.058228206 0.030644597 0.03827761 0.18644427
-0.01989554 -0.13617195 0.019296197 -0.22178088 -0.09354417 0.5475706 0.15010789 0.037116017
0.32495144 0.1007847 -0.46496204 -0.22458883 0.10954113 -0.0739065 -0.24917318 -0.10534004
0.0050919834 0.047025457 -0.16240896 0.15079802 -0.1090381 -0.12118583 0.12482286 0.18393742
0.16292945 0.05242669 0.1728471 0.17457218 -0.074684486 0.007434186 0.10435319 -0.04291314
0.070617296 0.053981803 0.031108875 0.021837978 -0.008352 0.15005718 -0.25302586 -0.021439463
-0.15891333 -0.063296884 0.20614864 -0.13263811 -0.16399103 0.34898144 0.09444416 -0.15499212
-0.28062358 0.08915458 0.002863492 -0.04919973 -0.06059012 0.15407787 0.16634524 -0.21149607
0.1532515 -0.14740525 -0.34627518 0.14012033 0.064673305 -0.36479062 -0.06527881 0.23653993
-0.1325538 -0.06594037 0.113132276 0.07887956 0.0065310947 -0.074626364 0.09182316 0.18064944
-0.107437305 -0.05035082 0.204261 0.008261783 -0.19828615 0.049374983 -0.13964462 -0.1764032
0.010771004 -0.080768816 -0.113041826 -0.06634197 0.035096675 0.11691519 -0.07353665 0.045527227
-0.0029353928 0.06931027 -0.1091593 0.07791659 0.062405486 0.116841644 0.074691154 -0.1732773
0.12977028 -0.21503149 -0.11513133 -0.122523464 -0.16049603 0.058449138 -0.03585443 -0.116337
0.046280097 0.008246796 -0.08830786 0.17184563 -0.13236009 -0.074366264 0.12769142 0.050058607
-0.145659 -0.0827701 -0.18266924 -0.16496569 0.27819228 -0.09604203 -0.062396474 0.11740932
0.09404666 0.062033482 -0.1640266 0.11701339 -0.056645714 -0.24517192 0.111938484 0.0567812
-0.29965517 -0.083504505 0.16003823 0.022059947 0.014204299 0.03004194 0.016323948 -0.0724764
0.18198153 0.09673562 -0.07389751 0.053863954 0.029524133 -0.009892085 -0.14927226 -0.052734517
-0.052533194 -0.07885041 0.07326096 -0.26691085 -0.11537384 0.058513056 -0.19834508 -0.113283694
0.19317386 -0.07040671 -0.19188602 0.18082826 -0.020940088 0.0992524 0.15540558 -0.050585747

fc1.bias f4 [120]
00000000: 65ea 5b3d 93e3 67bd 4e70 f6bc 20d7 10bd
00000010: b66a 2b3c fd6d 9d3c 8790 0f3d 517b 21bc
00000020: a86c 4e3d 77b6 e63c f665 b1bc 170d ccbb
00000030: 3692 9b3b d0c2 48bb 5164 e13c 4eaf 363d
00000040: 21b8 543d 1424 c53c ab44 a2bc 5f1f 113d
00000050: 5ad1 9f3c 9f1b 603d c98e dcbc d7d4 a93d
00000060: e9b3 4b3b 010b 4a3c 4830 f43c c299 983d
00000070: bbf7 6cbc b7d0 20bc c93a 3cbd 06ec 3fbd
00000080: 65c7 023d f8fd 613d 92a5 dd3c 82a4 3a3d
00000090: 0470 443d 9fd6 c73c 50a6 8b3d 4669 223d
000000a0: 317a bb3b 0b9a 523d deba 313d b122 25bd
000000b0: effd 1fbd b9d8 a4bc c1d6 44bd 08bc 423d
000000c0: e877 283c 36ab 29bc d1a9 50bd 89e7 803d
000000d0: e5f6 193d 8b85 293c bdb1 f1bc ded7 333b
000000e0: 4393 6b3c 9c77 1b3d 52e8 8cbd 9892 3a3d
000000f0: d0d3 34bd 337f ec3b e9de 263d 82ba 26bd
00000100: 9916 6a3c 6854 d43c 1efa 383d 675a 803d
00000110: 5449 10bd c7f1 573d 262e 1abb 8343 7f3d
00000120: 74dd 423d 43e4 a4bb c78f 493d d3af 2cbc
00000130: 6679 e8bc c451 7abd 1609 6cbd 5e96 803d
00000140: 415c 5d3d 1029 64bd 3415 d63c 8463 80bd
00000150: 5f7a f4bc 62b0 18bd d3f2 4b3d d7c3 6e3d
00000160: 50ef 22bd cbca acbc f24d a9bc db38 ac3c
00000170: 1d21 e9bb 73bb 9a3c 9f0c 2e3c 5859 2e3d
00000180: 2b57 ba3b 410f bf3c 381d 0dbd 059d a8bc
00000190: f93a c6bc a9eb 9cbc aaa8 5a3c 2a69 7bbb
000001a0: 0a7b 07bd 7929 8ebd 58bb 8f3b ad32 143c
000001b0: 249e 963c 3997 943d 979f 0bbd ca91 61bd
000001c0: 2d76 83bb 6493 66ba dc4e d0bb 035f ee3c
000001d0: 6d1d 203d 01d1 b33a a5b4 28bd 11e3 bfbc
0.053690333 -0.056613516 -0.030082848 -0.03536141 0.010462454 0.019217486 0.03504994 -0.009856061
0.05039659 0.028163178 -0.021655064 -0.0062271464 0.0047476543 -0.0030633695 0.027513655 0.044600777
0.05193341 0.024065055 -0.019808134 0.03543031 0.019509006 0.05471384 -0.026923554 0.08292549
0.0031082577 0.012331725 0.029808179 0.07451202 -0.01446336 -0.0098153865 -0.0459545 -0.04685595
0.03192844 0.055173844 0.02705649 0.045567043 0.04795839 0.024394331 0.06818831 0.039651178
0.0057213535 0.051416438 0.0433911 -0.040316287 -0.03906053 -0.020122873 -0.048056368 0.0475426
0.010282494 -0.010355761 -0.0509432 0.06294162 0.037588973 0.0103467805 -0.029503698 0.00274419
0.014378372 0.037955865 -0.06880249 0.04554996 -0.044147313 0.0072173118 0.040739927 -0.04070521
0.014287614 0.025919154 0.045160405 0.06267243 -0.03522618 0.05272081 -0.0023526042 0.062320244
0.047574475 -0.0050320937 0.049209382 -0.010539967 -0.0283782 -0.061113134 -0.057625853 0.0627868
0.05404306 -0.055703223 0.026133157 -0.06268981 -0.029843507 -0.037277587 0.049792122 0.058292236
-0.039779007 -0.021092793 -0.02066705 0.021023205 -0.007114543 0.01888821 0.010623126 0.042565674
0.0056866608 0.023322703 -0.034451693 -0.020582685 -0.024198042 -0.01915534 0.013345877 -0.0038362243
-0.033076324 -0.06941504 0.004386347 0.009045285 0.018385954 0.07255406 -0.034087744 -0.055070676
-0.0040118904 -0.00087957666 -0.006357057 0.02909804 0.039090563 0.0013718904 -0.0411879 -0.023423703

fc1.weight f4 [120, 400]
00000000: 8c43 cb3c 42f8 37bd b65e 89bd 6702 c4bd
00000010: 5842 903d 9bb1 a53d da98 703d 5ed9 15bd
00000020: d94e d73b 211c 763b 5184 5eba bdb0 6e3d
00000030: 286b 0fbd bd7f 803d 8899 97bd be06 d6bd
00000040: 17ff f43d 647f 5c3d b858 eb3c 4159 283d
00000050: fbd6 85bd ed11 483d d810 2f3e b11a 8f3b
00000060: 2a5f 8e3c 4232 babd ebad edbd 209e 1ebe
00000070: 2314 e9bc 7d1b 4b3d 3363 aebb d861 85bc
00000080: b57f 18bd b2f4 2b3d 8b7a c53c e050 7e3d
00000090: 1388 adbc 1b01 3ebc 5b7e 69bd c34a 183b
000000a0: 7193 95bb 3bea 673b 3f15 eb3d 2ae8 b23d
000000b0: da93 293c f7ff c23b 23d9 5a3d 1001 b93d
000000c0: f02f 373d 6a1f f2b8 7b4b ca3c 017f 04bd
000000d0: 66b3 89bc be94 2d3c 5010 803d e358 ab3d
000000e0: 6348 45bd 8f97 0cbd 1ce1 5a3d a8f7 a73d
000000f0: 4885 f33b 2bce 28bd 8de5 94bd 959d 4d3d
00000100: d2a1 fb3d 98aa 2d3d 21eb 63bd e387 ef3c
00000110: ce88 fb3b b519 2e3d ec0a 36bd b900 efbd
00000120: e5cb 2a3d 8aa9 9dbc b7f7 c1bd 6573 73bd
00000130: 903e 89bd 1c49 f93c 5a1d 483b 9a98 89bc
00000140: 336e 023c 780a a3bd 7707 f23c cd2c d8bb
00000150: cf42 de3c e98e 453d 67d9 85bd d9d9 9bbc
00000160: 5ecb 01bd 15ab 1f3c 9f68 a2bc 0814 0f3d
00000170: 795e 30bc 1039 4b3d 8352 e33c 750d 093d
00000180: e2f9 89bb 7d44 8fbd a046 b9bc 9129 3bbd
00000190: f8cf 38bd 913f bbbd bc3e aabd 6254 bcbd
000001a0: 45d3 d4bd 4e9b d4bc 4d2f a8bc c8a7 8fbd
000001b0: b129 a03a d9e7 62bd 8ecb 313d 42e0 08bd
000001c0: 7ec3 c6bd 10bb 843c 554a 9fbd 25fb 95bd
000001d0: d8d1 b93d a3e7 8dbc d057 6d3d c2db edbc
000001e0: 2c17 17be 72d5 193d 6da3 7fbc 097d e8bc
000001f0: 8d58 bfbd 7926 eb3b 43e6 e83b 6291 e3bd
00000200: c57d 1bbe 8fbe 05be 5f84 8ebb 49d4 923d
00000210: 5fb1 d23c 82dc 153d 246b 8b3d 58a2 13bd
00000220: 5889 18bc cb3a 79bd feaf c33d 7ccd 233d
00000230: 4891 603a f6eb cfbd d2b8 02bd 25df 37bd
00000240: 4dca 93bd 1afb f4bb 26df 5fbd b2c4 743d
00000250: a9ff 18bc d3f2 0abe f663 cd3d a2dd d03d
00000260: 0017 0a3e e158 cb3d d4ca d13d 4f0d 653d
00000270: bac6 9d3d 55b9 823c 3af5 23bd cc47 94bd
00000280: e463 2fbe 68d1 85ba 1a47 d53d 8440 903d
00000290: b9ff 2f3d 3e48 b6bd aa98 993d 503e aa3d
000002a0: f059 90bd 7bc2 373d 81b4 f53b 71ea 19bd
000002b0: 7aef 743b 59d9 003b 9414 3bbd b47d 89bd
000002c0: d3ae b7bd 095f b5bc 4fd4 153d 23d2 bbbd
000002d0: 023c d4bd a433 b8bd d303 b5bd 0444 56bd
000002e0: f76a abbb 6040 30bd 8d22 84bc 8fe5 803d
000002f0: aa84 993c ac23 8d3c dd15 82bc bf3d 1e3d
00000300: dc45 f23c 9117 b23c cb7d bb3c 6191 fdbd
00000310: 7414 d53c a43a 93bc 8a87 75bd 5423 eabc
00000320: 920f cdbc ff33 b5bb 719a 863c c850 b1bc
00000330: c526 b33c e47c db3c 862d 15bd 7e2f d7bc
00000340: 7c49 9b3c a71b d73c 3cd2 22bc 3317 42bd
00000350: 6cf4 cfbc 277a 013c b7cc b33c 2d86 b13b
00000360: d947 21bd f34f 073a 07a8 a23b e51b 1ebd
00000370: 99ba 17bd 5fcb 063c 9a4c 173d 32b1 983c
00000380: a03a 27bd dc75 3cbd 79b3 ccbd 5a69 debd
00000390: 992f cc3b 2d31 2a3e 0b61 4f3d d5f5 a5bd
000003a0: 3ceb a2bd 6b1a ccbd fa88 c53b 5fd7 79bc
000003b0: b4da 8dbd 3657 1c3c 31f3 d8bc db37 12bd
000003c0: 2947 2ebd 5982 913d 055a 033e 8464 833d
000003d0: 5cce 4b3d 210f 203d 58c4 cb3d 21ef 163e
000003e0: 9460 c13d e780 a9bd ed25 74bd fb10 acbd
000003f0: 17a3 7abd 42c3 72bd 4081 79bd 2962 4cbd
0.024812482 -0.04491449 -0.06707518 -0.09570771 0.07043904 0.08090516 0.05873952 -0.03658425
0.0065706787 0.0037553387 -0.00084883446 0.05827402 -0.0350143 0.06274364 -0.07402331 -0.10450505
0.11962717 0.053832427 0.028728828 0.041100744 -0.06535145 0.04884522 0.17096269 0.0043671955
0.017379362 -0.09091617 -0.11605438 -0.15490007 -0.028451985 0.04958676 -0.005321884 -0.016282007
-0.037231166 0.041981407 0.024106285 0.062088847 -0.02118305 -0.011596943 -0.057005268 0.002323792
-0.0045646955 0.0035387415 0.11478662 0.08735688 0.010350192 0.0059509235 0.053429734 0.09033406
0.04472345 -0.000115453106 0.024694195 -0.032347683 -0.016809177 0.010594545 0.06253111 0.08366563
-0.048164736 -0.034324225 0.053437337 0.082015336 0.00743166 -0.041212242 -0.07270346 0.05019911
0.12286724 0.04239902 -0.05564416 0.0292396 0.0076762205 0.042504985 -0.04444401 -0.1167006
0.041698355 -0.019245882 -0.09471076 -0.05943622 -0.06701386 0.03043037 0.0030535073 -0.016796399
0.007960844 -0.07960981 0.029544575 -0.0065971375 0.027131466 0.048231993 -0.06535607 -0.019024776
-0.031688087 0.009745379 -0.019825278 0.034931213 -0.010764712 0.049614966 0.027749306 0.0334601
-0.0042106966 -0.06995485 -0.022616684 -0.045693938 -0.04512021 -0.09142984 -0.08312747 -0.09195782
-0.10391859 -0.025952961 -0.020530367 -0.070144236 0.0012219456 -0.05539689 0.043407016 -0.033416994
-0.09705256 0.01620248 -0.077778496 -0.07323293 0.09073228 -0.017322367 0.057945073 -0.029035453
-0.14754933 0.037557073 -0.015602929 -0.028379934 -0.093430616 0.007176217 0.0071075275 -0.11111714
-0.15184696 -0.13060974 -0.004349276 0.071693964 0.025719343 0.036587246 0.06807545 -0.036043495
-0.009310089 -0.060847085 0.09555052 0.039990887 0.00085665705 -0.10152428 -0.03191454 -0.04489054
-0.0721632 -0.0074762227 -0.05465617 0.059757896 -0.009338298 -0.13569193 0.10028832 0.10198523
0.13485336 0.09929062 0.102437645 0.055920895 0.0770392 0.015957514 -0.04002879 -0.07240257
-0.17127949 -0.0010209503 0.10413952 0.070435554 0.042968486 -0.08900498 0.074998215 0.083126664
-0.07048404 0.044863205 0.0074983244 -0.037577096 0.0037374184 0.00196608 -0.04567392 -0.06713429
-0.08968892 -0.022140043 0.036579426 -0.0917094 -0.10363008 -0.08994225 -0.0883862 -0.05231096
-0.005231257 -0.043030143 -0.016129756 0.06293785 0.018740017 0.017228924 -0.015879566 0.038633104
0.029574327 0.021739753 0.022887131 -0.123812445 0.02601073 -0.017972298 -0.059943713 -0.028581299
-0.025031839 -0.00552988 0.016431065 -0.021644965 0.021869073 0.02679295 -0.036420368 -0.026267763
0.018955939 0.026258303 -0.009937819 -0.047385406 -0.025385104 0.007902659 0.021948202 0.0054176063
-0.03937516 0.00051617547 0.004963878 -0.03860082 -0.037043188 0.008227198 0.036938287 0.01863918
-0.040827394 -0.046010837 -0.09995169 -0.10859938 0.00623126 0.16620322 0.050629657 -0.08103529
-0.07955024 -0.09965976 0.006028292 -0.015249102 -0.0692648 0.009542277 -0.02648315 -0.0356978
-0.042548332 0.0710494 0.12827308 0.06415656 0.049757347 0.039076928 0.09949559 0.14739658
0.09442249 -0.08276539 -0.05960648 -0.08401676 -0.06119069 -0.059268244 -0.060914278 -0.0498983

fc2.bias f4 [48]
00000000: 71c6 b93d 925e 643d 2a8f 80bd 2f21 61bd
00000010: 2b1c 33bc 900b 4fbc 2dbe 39bc f32d 393d
00000020: e0aa a8bc 2bc2 2fbd 078d 153e cb04 c93d
00000030: f3ed 2bbd 1d74 fbbd 44c3 203e 2be2 6d3c
00000040: 2c79 4abd 15c7 523c fe24 bb3d d563 88bd
00000050: 1e44 853d 3393 11bd 970d cc3c dc9c b4bd
00000060: 27ca 7abd ac4c 2a3e 3f74 dcbc bb61 0abd
00000070: fcd6 793e 3c3f 3abd b2b1 423c 2e99 cb3d
00000080: aa0a a03d 35c1 cabd 93ea 293d 168d 36bd
00000090: ad7f 83bd 7d9f b2bd 89ea 873c e201 bc3b
000000a0: d8b7 eb3a 3abc f43c 7d72 8ebd f67b 863d
000000b0: feb6 6b3d e54c 04bd c576 523e b95b 7e3d
0.09071053 0.05575425 -0.062773064 -0.054963287 -0.010932009 -0.012637034 -0.011336845 0.045209836
-0.020589292 -0.042909782 0.14604579 0.09815367 -0.041974973 -0.12278006 0.15699488 0.014519255
-0.049431965 0.012864848 0.09137915 -0.066596664 0.06507133 -0.03554077 0.024908824 -0.08818981
-0.061227944 0.1663081 -0.0269109 -0.03378461 0.24398416 -0.04547046 0.011883186 0.09941326
0.07814534 -0.099001326 0.041483473 -0.044568144 -0.064208366 -0.08721826 0.016591327 0.005737529
0.0017983867 0.02987491 -0.06955431 0.065666124 0.05754756 -0.032299895 0.2055312 0.062099192

fc2.weight f4 [48, 120]
00000000: ecc7 553e a7e1 b5bc 9173 b8ba 5e15 d2bd
00000010: 4b03 0b3d ddff 613d f3bf 05be cebc 06bd
00000020: c39b 40be e79f d53d b0bd 823d 69e0 9fbd
00000030: b0f2 06bd f876 4e3d 87cd d13d 7885 b03d
00000040: cc86 513d 67ad 803e b5da 8a3d 6b7c d1bd
00000050: aba4 1d3e fbd5 5f3b a89e 6dbe 2f34 53be
00000060: 6f78 82bd 63b0 ad3c fbd7 aebd d006 03be
00000070: b118 74bc ed66 96bd d155 cdbd be1a d5bd
00000080: a6ac e9bd 7575 ec3d 4c98 b5bc a6aa 48bc
00000090: 2f28 7f3b 9229 773d 5e70 5f3d cbb6 9cbb
000000a0: a2e3 303d 2e7c 1f3d 8978 03be b318 d7ba
000000b0: f290 193d 3088 6c3c 8d09 4a3e 6371 52be
000000c0: bcba 123d 3685 1a3e d7a9 60bd a91d 1fbd
000000d0: 2136 e5bc 147a f63c c8b1 143d b1bd b1bd
000000e0: 594f 2abe 3658 56bc ffe8 cbbc 5bc0 723e
000000f0: e290 763d 5f29 ea3d 1c42 b83e 0b57 933e
00000100: d009 d2bd 3a68 3abd 1d04 1abe dfc0 03be
00000110: cdfa aabd 4581 6e3e 5a5c 97bd 343a 063e
00000120: 673a 4f3e 7fcf 0cbe 902b e03d 625c cabd
00000130: 0b61 3f3e 6e81 fa3d 8659 94bd c2b4 61be
00000140: 4638 823e 8c4b fcbd 7712 053e 2c07 00bc
00000150: e360 8a3e e87f fa3d 9308 393c cdef 663e
00000160: bd98 99bc e74c 25bd 3328 9c3b 7974 22bc
00000170: 5417 183e 5e1c 993d 8a28 2abd 8084 82be
00000180: 71e7 22bd 0495 1fbb 9a4c 06be 6d21 a73d
00000190: 0abd 473d 6699 1cbe dbbc 55bd 2938 38bd
000001a0: 6cf4 733e f3db a3bd 41b5 813d 3c85 9b3e
000001b0: 21e4 69be b7de ab3e 6a30 00bd 2136 563d
000001c0: ff1a 98be ccb6 cf3d 9512 633b 3abe 46be
000001d0: d43e e83d 37c6 8bbd 66f6 9bbd b601 f2bd
000001e0: 490a 173d fdbf 953d 5b98 a33c 76f6 863d
000001f0: 5f84 ebbd 40bc 443e 30ac e2bd 2427 913d
00000200: 9b3c 173d 211e 86bd d38e 33bd 2cc2 a0bc
00000210: 1a07 15be d291 fabd 9eca 343e bbb5 753d
00000220: fed1 57bd 99ea 9d3b f588 71bd cb73 d5bc
00000230: 7b9b 4f3d 884e 87bd c572 ba3d 75d3 a4bd
00000240: 8a05 8cbe 15fe 463c a9b1 35bd c44e 553e
00000250: a725 37be 844d 8cbd d92c 313d 1f00 643d
00000260: d5e2 78be 30f1 013e 94c2 d9bc b7d7 db3d
00000270: f473 aebd 09d1 6f3d f5b5 6a3d cf4e 5f3d
00000280: 5402 4a3e cbcf 2dbe 10a4 81bd 12b6 82bd
00000290: 0270 93bd 419d 443e 3994 883e 0a67 183e
000002a0: c0b8 133e 0c1f dc3d bd37 c3bd 6af9 f63d
000002b0: 8665 4dbc 2fba 42bd 7d50 c5bd b2c8 d53c
000002c0: fc55 05bd 1b84 d43d 6c70 0dbe 997e 833e
000002d0: b48b c0bd 4fe5 73bd c453 a83d 52da 1c3d
000002e0: d707 043e 8d4d 993d 249d 08be dc04 bdbb
000002f0: 0c54 7a3c b8b9 0d3e 7452 b0bd 2876 28bd
00000300: 2a3c e83d ca52 dd3b aafa 50bd b61c 903d
00000310: 3f69 f33d 1782 5c3e 1564 58be ff8c 623e
00000320: 0e22 1d3e 7705 4cbd 5224 0fbe d945 f8bc
00000330: c2a3 1a3b e413 5abd 4300 103d 29f4 57be
00000340: 4a6e 08bd 9df9 d0bd cdcd ba3c 8b2e 0dbc
00000350: 1613 6c3d d128 40be e843 21bc 9db5 9c3c
00000360: 0d83 2a3d 1c49 b13d 4595 11be dd68 b03d
00000370: 57ac ffbd 72c6 983d c6eb 4c3d d732 b43d
00000380: 917e 95bd 4ecd 00be 9742 d33c b989 9fbc
00000390: a5df 59be 6530 b73d 7373 3f3d 69e3 c9bc
000003a0: fd0d 2ebb cc17 063e 1f66 e3bd a8f2 03be
000003b0: 1538 0c3d d1ac ab3d 0055 c73d a5c2 a43d
000003c0: 3ad3 393e cab5 1fbd 74c5 bf3c 3350 f4bc
000003d0: 3daf e8bd 7369 5f3e 73b6 253e 40ed 7e3e
000003e0: 098f 53be a164 083d 5a00 01be 926a 3f3e
000003f0: b050 13be ca38 a23d 956a 0ebe efeb 9abd
0.20877045 -0.022202326 -0.0014072527 -0.10257982 0.033938687 0.05517565 -0.13061504 -0.032894902
-0.18809418 0.104308896 0.06383836 -0.07806475 -0.03294629 0.050406426 0.10244279 0.08619207
0.051153943 0.25132295 0.06779996 -0.10228809 0.15394847 0.0034154642 -0.23205054 -0.20625375
-0.06370627 0.021202272 -0.08537289 -0.12795568 -0.014898465 -0.0734385 -0.10026134 -0.10405491
-0.11409883 0.11545841 -0.022167347 -0.012247717 0.0038933863 0.06034238 0.05455052 -0.004782533
0.043185838 0.038936786 -0.1283895 -0.0016410559 0.037491746 0.0144367665 0.19730206 -0.20551066
0.035822615 0.15089878 -0.054849472 -0.038846646 -0.027979912 0.030087508 0.036302358 -0.08678759
-0.16631831 -0.013082555 -0.024891375 0.2370619 0.060196765 0.11433672 0.35987937 0.28777346
-0.10255778 -0.045509554 -0.15040632 -0.12866543 -0.08348618 0.232915 -0.073906615 0.1310814
0.20237122 -0.13751028 0.10945809 -0.09880902 0.18689363 0.12231718 -0.07243638 -0.2204161
0.25433558 -0.12319097 0.12995325 -0.00781421 0.27027044 0.122314274 0.011293548 0.22552414
-0.01874959 -0.040356543 0.0047655343 -0.009915465 0.14852649 0.07476114 -0.041542567 -0.25491714
-0.0397715 -0.0024350295 -0.13115159 0.08160672 0.048764266 -0.15292892 -0.05218206 -0.044975433
0.23823708 -0.08000936 0.063333996 0.30375087 -0.2284093 0.33568355 -0.03129617 0.052297715
-0.29708096 0.101422876 0.0034648527 -0.19408503 0.113401085 -0.06824916 -0.07615356 -0.118167326
0.036875043 0.073120095 0.01997011 0.065899774 -0.11499857 0.19212437 -0.110679984 0.070875436
0.036923032 -0.065487154 -0.04383738 -0.019623838 -0.1455349 -0.12234844 0.17655417 0.059987765
-0.0526905 0.004819226 -0.058968503 -0.026056191 0.050685387 -0.066067755 0.09103922 -0.08048145
-0.27347976 0.012145539 -0.044358883 0.20830828 -0.17885457 -0.068507224 0.04325566 0.055664178
-0.2430528 0.12689662 -0.02658204 0.10734504 -0.0851821 0.05854896 0.057302434 0.054518517
0.1972745 -0.16973798 -0.063301206 -0.063823834 -0.07199098 0.19200613 0.26675585 0.14883056
0.14425945 0.10748109 -0.095321156 0.12059291 -0.012536412 -0.04754084 -0.096344925 0.026096676
-0.032552704 0.103767596 -0.13812417 0.25682524 -0.09401646 -0.059544858 0.08219102 0.038294144
0.12893616 0.07485495 -0.13341194 -0.0057684015 0.015278827 0.13840377 -0.08609477 -0.041128308
0.113396004 0.006754254 -0.051020302 0.07036726 0.118853085 0.21534 -0.21131928 0.22124098
0.15345022 -0.0498099 -0.13978699 -0.030306743 0.0023596142 -0.053241625 0.0351565 -0.21089233
-0.033308305 -0.1020386 0.022803212 -0.008617054 0.05763539 -0.1876557 -0.00984285 0.019129569
0.041628886 0.08656523 -0.14217098 0.08613751 -0.12484043 0.074597254 0.05002954 0.087987594
-0.07299531 -0.12578318 0.025788588 -0.019474851 -0.2127672 0.089447774 0.04674096 -0.02464457
-0.002655863 0.13095015 -0.111034624 -0.12885535 0.03423317 0.083825715 0.09733009 0.08044938
0.18146983 -0.038991727 0.023409583 -0.029823398 -0.11361549 0.2181757 0.1618288 0.24895191
-0.20660032 0.033299092 -0.1259779 0.18692997 -0.14386249 0.07920988 -0.13907845 -0.07564532

fc3.bias f4 [25]
00000000: a7c6 b8bd 721e a63e 3f99 9cbe 5736 1d3e
00000010: b1cb 0abe 1df5 903e 37cd b43d 47a4 7d3d
00000020: 6cfe a73e 5a89 06be 7d27 d43d 8460 1f3c
00000030: 5355 a6bc 773f 92be bb4b 87be 4986 0fbf
00000040: 2bd6 2d3e 3b68 b83d cfbe 733e 5021 a23d
00000050: 1d59 6a3d 22b5 963e 7c80 b6be aa6b 833e
00000060: a6dd 2ebf
-0.09022265 0.32445103 -0.30585667 0.1535276 -0.13554265 0.28312007 0.08828204 0.061924245
0.32811296 -0.13138333 0.10359094 0.009727601 -0.020304358 -0.28564045 -0.26424965 -0.5606428
0.1697623 0.090042554 0.23803256 0.0791651 0.05721389 0.29435068 -0.356449 0.2566808
-0.6830696

fc3.weight f4 [25, 48]
00000000: 669d c6be 97bc 0dbe 46c2 02be 2816 76bd
00000010: 4c21 06be c297 37be 86e3 ea3d 9377 02be
00000020: bef3 18be 6c5f c0bc fd5c c43e 6f53 08be
00000030: afbb 8dbc 2f2d 9fbd a9f8 833e a802 f9bd
00000040: 2657 023c e80a e7bd c9d9 61be 1dd5 6fbe
00000050: 6406 263e 73ea 27be c6b5 ab3c e28b 1cbe
00000060: 5b71 07be a1ff 493c 95a6 a1bd 47b7 783d
00000070: 7e95 b53c d833 e8bd b770 cfbd 1272 80bd
00000080: 3a15 82be be49 77bd 3890 babd a07e 1cbe
00000090: 0a02 173f e7ea fbbd 3c1e a13d 3b8a 0b3e
000000a0: 8c34 cebe b565 d53e 560f 13bd 90a3 0ebe
000000b0: 4365 973e fda3 f63d 40cb 353e 8154 be3d
000000c0: efd5 13be e928 27be 85e5 21be 3111 93bd
000000d0: f2af 50be 19d3 c73d c986 18be fd52 29be
000000e0: cae6 103f 079e 17be e303 71be 848f 7bbe
000000f0: 390b 693e 5ecd 503d 282b 383e e9a2 09be
00000100: 9b0e 3bbe 42da 9a3e cdd2 ec3d 527a 24be
00000110: 11cf c73d 4fd5 cfbd 124e 4e3e 4dc7 93bc
00000120: 03c8 4b3c 38c5 a33e 441b 07be 1cd1 033d
00000130: c312 98bc 3c49 70bd ca49 a0bd 935f b23d
00000140: 1655 01be 2acf 35be 6ec2 d3bb 8255 c1be
00000150: 669f 99be 7359 0ebe 5844 13be 5808 5f3e
00000160: 09c1 1c3e fcf0 89be 053d 983d 9b95 c4bc
00000170: 5060 5abd fdd3 b4bc 77b4 ce3d 3315 943e
00000180: 7f45 273f f5cf b23e 1c77 09be e171 c9bd
00000190: 6a75 1d3e 92ac 9f3e 9706 fa3c 733a 8bbe
000001a0: 4018 c03d d02e eebd 26ec 07be c31b 2ebd
000001b0: 355b 813e 07ac 4b3e d778 edbd 8e7d a03e
000001c0: 1715 a1be 5b1b d9bd 8773 40bd 5621 503e
000001d0: 1c6b cdbe 548b 27be 5ae5 463e b696 5a3c
000001e0: 51d6 023e 2174 51be 79b9 dcbd c566 193e
000001f0: 1331 90bd 5db7 12be 8f5a f2bd f219 98be
00000200: d050 5bbe 4bd3 13bd ee00 36bc f78c 49be
00000210: 9a4b 563d b342 91be e820 26be bfe5 8b3d
00000220: 474f 01bf a68e 8c3d 22f5 743d 5215 b93b
00000230: 4aa1 b5bd e799 2b3d 6b8c 34bd e835 4f3e
00000240: b647 8ebe 69a3 1f3e fe2a 25bd 24d5 433d
00000250: 9242 f03d 7f38 3abe 0590 2fbe 330d 07be
00000260: fcd2 ac3e ba96 86be d388 cbbe 9c12 a23e
00000270: 05ae 743e d54a e0bd 43ed f03d fe4e b03e
00000280: 9683 10bd d225 57bd 837c d03e 4749 f63c
00000290: d309 db3d e3ab c03a f0ae f6bd 9466 46bd
000002a0: d441 a63d 6417 febd 0506 973e 2860 42bd
000002b0: b9ad f13e 3d08 0ebd 8e5a be3d fbfb 96be
000002c0: 406b 27be ce59 e43e e1e4 5d3d e64b 913d
000002d0: a936 333e 6c03 ab3d 1515 163d d8e4 2cbe
000002e0: 47e4 813d d9c0 843e 0c20 a9bd 4ffc 963e
000002f0: 44bd cb3d e341 88bc b20c fbbd daa8 993d
00000300: 8fe2 3ebd db01 e33d 2e69 76be ff29 f53d
00000310: 5957 9cbd 617e 55bd 0859 f1bd 51ac 603a
00000320: 905b 6f3e 3301 7bbd 6353 313d 9810 11be
00000330: d9f8 573e cde1 5bbe 32f7 223e 12d9 89be
00000340: bb77 903b cf42 563e b28d 43be 3d17 26bd
00000350: ceff 94bd 129a 77bd 634e 5e3d b331 e63d
00000360: 0b17 e83d 344a 863c 8279 a73d 0a6d 21be
00000370: 1f4f 95be a499 71bd 64ac d63d 64a2 413e
00000380: 161e 0c3d 5301 96bd 5639 dd3d deb8 593d
00000390: a7b9 193f 34ce 80be 66b5 c7bd 2de5 573c
000003a0: 0d3a edbe 1e06 8dbd acef 623d c135 f73e
000003b0: 604a 62be 0be7 e4bd 5663 fe3d c9bb a53e
000003c0: 73a5 063f 4d2f d5bd c14b 68be 8d35 a5bd
000003d0: 6561 71be 3c5e d6bd 9bb4 c8bd 54d1 953e
000003e0: 8c0e d8bd dbd3 e7bd ac0f 0bbe 77ce 27be
000003f0: 0242 d93e bbca b8be ae33 0d3e 01f8 81bd
-0.3879196 -0.13841473 -0.12769422 -0.060079724 -0.13098639 -0.17928985 0.11469178 -0.12740926
-0.1493673 -0.023483 0.38352194 -0.13313077 -0.017301409 -0.0777229 0.2577565 -0.1215871
0.007955348 -0.11281377 -0.22055735 -0.2342114 0.16213375 -0.16398029 0.0209607 -0.15287736
-0.13226835 0.012329013 -0.07893101 0.060721662 0.02216601 -0.113380134 -0.101289205 -0.06271757
-0.2540682 -0.06037306 -0.09109539 -0.15282679 0.58987486 -0.123006634 0.07867095 0.1362695
-0.40274465 0.4167916 -0.035903297 -0.13929582 0.29569444 0.12042997 0.17753315 0.092934616
-0.14437078 -0.163242 -0.15810211 -0.071810134 -0.20379618 0.097570606 -0.14895166 -0.16535564
0.56602156 -0.14806376 -0.23536639 -0.24566466 0.22758187 0.050977103 0.17985213 -0.13441052
-0.1826729 0.30244642 0.115636446 -0.16062286 0.09756292 -0.10148107 0.20146969 -0.01803937
0.012437823 0.31986403 -0.13193995 0.032181844 -0.018563634 -0.05866359 -0.07826574 0.087096356
-0.12630114 -0.17754808 -0.006462387 -0.3776055 -0.30004424 -0.1390131 -0.1438154 0.21780527
0.15308012 -0.2694167 0.074335136 -0.023997119 -0.053314507 -0.02207374 0.10093015 0.28922424
0.6534042 0.34924284 -0.13424343 -0.09836174 0.15376821 0.31186348 0.03052072 -0.2719303
0.09379625 -0.116300225 -0.13273677 -0.042506944 0.25264898 0.19889842 -0.11595314 0.3134579
-0.31461403 -0.10600921 -0.046985175 0.20325217 -0.4012078 -0.16361743 0.19423428 0.013341596
0.12777068 -0.20454456 -0.107775636 0.1498061 -0.0704061 -0.1432776 -0.11833679 -0.29707295
-0.21417546 -0.036090177 -0.01110862 -0.1968268 0.052318193 -0.283712 -0.1622349 0.0683093
-0.5051159 0.068631455 0.05980409 0.0056482935 -0.08868654 0.04189482 -0.044079226 0.20235407
-0.27789086 0.1558968 -0.040324204 0.04781069 0.11731447 -0.18185614 -0.17144783 -0.13188629
0.33754718 -0.2628687 -0.39752826 0.31654823 0.23894508 -0.10951773 0.11764004 0.34435266
-0.03528174 -0.052526303 0.40719995 0.030064238 0.10695233 0.0014699664 -0.120450854 -0.04843767
0.081180245 -0.12406805 0.2949678 -0.047454983 0.47202852 -0.034675825 0.09294616 -0.2948912
-0.16349506 0.44599766 0.054173354 0.070945546 0.1750132 0.08350262 0.0366412 -0.16884172
0.063423686 0.2592838 -0.082580656 0.2948937 0.09948209 -0.01663298 -0.12258281 0.07502909
-0.04660278 0.11084338 -0.2406356 0.11970901 -0.07633848 -0.052122477 -0.117845595 0.0008570599
0.23374772 -0.06128044 0.043292414 -0.14166486 0.21091022 -0.21472855 0.1591461 -0.26923424
0.0044088042 0.20923923 -0.19097021 -0.040549506 -0.07275353 -0.060449667 0.054273974 0.11239948
0.1133252 0.016392805 0.08177473 -0.15764251 -0.29161927 -0.058984414 0.104821 0.18909603
0.03420838 -0.07324471 0.108019516 0.05315482 0.6004891 -0.2515732 -0.09751396 0.013177198
-0.46333352 -0.068859324 0.05540435 0.48283198 -0.22098684 -0.111768804 0.124212906 0.3236983
0.52596205 -0.104094125 -0.22685148 -0.080668546 -0.2357231 -0.104671925 -0.09800073 0.29261267
-0.105496496 -0.11319705 -0.13580197 -0.16387354 0.42433172 -0.3609217 0.13789245 -0.06346131
